model/IEMOCAP_3.0s_Segmented_focal_float16.tflite (tflite, 930816 bytes, 18 tensors)

dense_9/bias f2 [6]
0	0x9b95	-0.003702
1	0xa0ac	-0.009125
2	0x1f8e	0.007378
3	0x126e	0.000785
4	0x1e19	0.005955
5	0xa5da	-0.02286

model_9/re_lu_72/Relu;model_9/batch_normalization_72/FusedBatchNormV3;conv2d_72/bias;model_9/conv2d_72/BiasAdd;model_9/conv2d_74/Conv2D;model_9/conv2d_72/Conv2D f2 [32]
0	0x240b	0.0158
1	0xa3d3	-0.01528
2	0x9a46	-0.003063
3	0x2478	0.01746
4	0xa4ae	-0.01828
5	0x1eef	0.00677
6	0xa3ac	-0.014984
7	0x2394	0.0148
8	0x24bd	0.01851
9	0xa287	-0.01275
10	0x20a4	0.00906
11	0x26e2	0.02689
12	0x9635	-0.001515
13	0x9fe4	-0.007706
14	0x232f	0.01403
15	0xa289	-0.012764
16	0x257f	0.02147
17	0x1ef7	0.0068
18	0x2b67	0.05783
19	0x25b2	0.02225
20	0x9e86	-0.00637
21	0x2569	0.02113
22	0x1aa1	0.003237
23	0x2165	0.01054
24	0x96c9	-0.001657
25	0x282d	0.03262
26	0x243e	0.01657
27	0xa0af	-0.00915
28	0xa7e3	-0.0308
29	0xa1d8	-0.01141
30	0x2762	0.02884
31	0x2773	0.0291

model_9/re_lu_73/Relu;model_9/batch_normalization_73/FusedBatchNormV3;conv2d_73/bias;model_9/conv2d_73/BiasAdd;model_9/conv2d_74/Conv2D;model_9/conv2d_73/Conv2D f2 [32]
0	0xa88e	-0.03558
1	0xa10c	-0.00986
2	0xa805	-0.0314
3	0x25e6	0.02304
4	0xa8fb	-0.0389
5	0x28a4	0.03625
6	0xa8ff	-0.03903
7	0xa82c	-0.0326
8	0xabb2	-0.06012
9	0xa815	-0.0319
10	0x2bb6	0.06024
11	0x2e5b	0.0993
12	0xa6dd	-0.02681
13	0xa7c8	-0.0304
14	0xac35	-0.06573
15	0x2c7e	0.0702
16	0x2d1f	0.08
17	0x2b0f	0.05515
18	0x286d	0.03458
19	0x2b02	0.05475
20	0x2afc	0.05457
21	0x2b92	0.05914
22	0x2a0d	0.04727
23	0xa0fa	-0.00972
24	0xa575	-0.02132
25	0xa1c9	-0.0113
26	0x22fb	0.01363
27	0x293f	0.041
28	0x29d9	0.0457
29	0xa751	-0.02858
30	0x2362	0.01442
31	0x2c81	0.0704

model_9/re_lu_74/Relu;model_9/batch_normalization_74/FusedBatchNormV3;conv2d_74/bias;model_9/conv2d_74/BiasAdd;model_9/conv2d_74/Conv2D f2 [32]
0	0x2372	0.01454
1	0x22e0	0.01343
2	0x2423	0.01616
3	0x8df6	-0.0003638
4	0x244a	0.01675
5	0x1c16	0.00399
6	0x2708	0.02747
7	0x2545	0.02058
8	0x2228	0.012024
9	0x265f	0.02489
10	0x1cf7	0.00485
11	0xa7fd	-0.0312
12	0x286a	0.0345
13	0x1e38	0.006073
14	0x2396	0.01482
15	0x2600	0.02344
16	0x9b7a	-0.00365
17	0x2533	0.02031
18	0xa551	-0.02077
19	0xa6f6	-0.02719
20	0x2464	0.01715
21	0x1edf	0.00671
22	0x2846	0.0334
23	0x8fdf	-0.0004804
24	0x265e	0.02487
25	0xa0ef	-0.009636
26	0x25ce	0.02267
27	0x2304	0.0137
28	0x2905	0.0392
29	0x1c14	0.003983
30	0x25dc	0.02289
31	0x2804	0.03137

model_9/batch_normalization_75/FusedBatchNormV3 f2 [64]
0	0x3670	0.4023
1	0x3c37	1.054
2	0x38a3	0.5796
3	0x3612	0.3794
4	0x36e5	0.431
5	0x3448	0.2676
6	0x3800	0.5
7	0x2bc5	0.0607
8	0xb0ad	-0.1461
9	0x31e2	0.1838
10	0x3510	0.3164
11	0x35bc	0.3584
12	0xb014	-0.1274
13	0x3756	0.4585
14	0x3472	0.2778
15	0xb180	-0.1719
16	0x3abb	0.8413
17	0x388b	0.568
18	0xb599	-0.3499
19	0x3694	0.4111
20	0x34f6	0.31
21	0xb2bf	-0.2108
22	0xbcd4	-1.207
23	0x30fc	0.1558
24	0x3aff	0.8745
25	0xb32d	-0.2242
26	0x366f	0.402
27	0x391f	0.64
28	0x318a	0.1731
29	0xb1c6	-0.1804
30	0x3844	0.533
31	0x3954	0.666
32	0x36c4	0.4229
33	0x361d	0.382
34	0xadeb	-0.09247
35	0xb7e3	-0.493
36	0xb399	-0.2374
37	0xac70	-0.06934
38	0x3702	0.438
39	0xa669	-0.02504
40	0x3860	0.547
41	0x356a	0.3384
42	0xa463	-0.01714
43	0x37ba	0.483
44	0x35ed	0.3704
45	0x35d5	0.3645
46	0x3932	0.6494
47	0x348d	0.2844
48	0x33b1	0.2404
49	0x2c11	0.06354
50	0x36d6	0.4272
51	0xaf0b	-0.11005
52	0x3032	0.1311
53	0x2fef	0.12396
54	0xac3c	-0.06616
55	0xb3a2	-0.2385
56	0x38b5	0.5884
57	0x3a20	0.7656
58	0xba37	-0.777
59	0x2fec	0.1238
60	0xb669	-0.4006
61	0x2fb1	0.1202
62	0xb470	-0.2773
63	0xb9d2	-0.7275

model_9/batch_normalization_76/FusedBatchNormV3 f2 [96]
0	0xbc15	-1.0205
1	0x3c07	1.007
2	0x3936	0.6514
3	0x39f7	0.7456
4	0x3984	0.6895
5	0x3351	0.2286
6	0xada6	-0.08826
7	0x3539	0.3264
8	0xb8e2	-0.6104
9	0x3ced	1.231
10	0x3a8b	0.818
11	0xb791	-0.473
12	0xb7fe	-0.4995
13	0x3d39	1.306
14	0x3dd4	1.457
15	0xb670	-0.4023
16	0xbb8d	-0.944
17	0x3839	0.528
18	0x35fd	0.3743
19	0x36a3	0.4148
20	0x4061	2.19
21	0x3959	0.6685
22	0xba9e	-0.827
23	0x3b4b	0.9116
24	0x351e	0.3198
25	0x3cdc	1.215
26	0x3c12	1.018
27	0x3a48	0.785
28	0x3b42	0.907
29	0x3d4a	1.322
30	0xad7b	-0.08563
31	0xb854	-0.541
32	0x376e	0.4644
33	0x3977	0.683
34	0x3554	0.333
35	0xbc33	-1.05
36	0x3a44	0.783
37	0x3c7c	1.121
38	0x3c76	1.115
39	0x2de6	0.09216
40	0x34d8	0.3027
41	0x3b75	0.932
42	0xb37f	-0.2343
43	0xb965	-0.6743
44	0x3d49	1.321
45	0x3f3a	1.807
46	0x39b3	0.7124
47	0xbb19	-0.887
48	0xb52a	-0.3228
49	0xb2af	-0.2089
50	0xaf22	-0.11145
51	0xb6d7	-0.4275
52	0xb402	-0.2505
53	0x3924	0.6426
54	0x38e1	0.61
55	0x38c3	0.595
56	0x3ce8	1.227
57	0x3abd	0.8423
58	0xb658	-0.3965
59	0x309c	0.144
60	0xb8c2	-0.5947
61	0x3888	0.5664
62	0xb55e	-0.3354
63	0xb4df	-0.3044
64	0x3bed	0.9907
65	0x33d6	0.2449
66	0x3651	0.3948
67	0x3817	0.511
68	0xb528	-0.3223
69	0xb821	-0.516
70	0x366b	0.4011
71	0x2cd5	0.0755
72	0xa71c	-0.02777
73	0xbe11	-1.517
74	0x37a3	0.4773
75	0xb89c	-0.576
76	0x3966	0.675
77	0x336f	0.2323
78	0x38af	0.5854
79	0x25de	0.02292
80	0xb929	-0.645
81	0x3702	0.438
82	0xb639	-0.389
83	0x3c04	1.004
84	0x39ca	0.7236
85	0xb6a1	-0.4143
86	0x399f	0.7026
87	0x3806	0.503
88	0x3b35	0.901
89	0x38ef	0.6167
90	0xb52a	-0.3228
91	0x395c	0.67
92	0xbae4	-0.8613
93	0xbeb8	-1.68
94	0x33b3	0.2406
95	0x3914	0.635

model_9/batch_normalization_77/FusedBatchNormV3 f2 [128]
0	0xb940	-0.6562
1	0x3df5	1.489
2	0xbc2d	-1.044
3	0xbc74	-1.113
4	0x3a93	0.822
5	0x3b3a	0.9033
6	0xbb4e	-0.913
7	0x2cec	0.0769
8	0xad24	-0.0803
9	0x3e5e	1.592
10	0xbf4a	-1.822
11	0x337c	0.2339
12	0x3cba	1.182
13	0x363f	0.3904
14	0x38fe	0.624
15	0x3a4b	0.7866
16	0x393b	0.654
17	0xb56d	-0.339
18	0xba9c	-0.826
19	0x3722	0.4458
20	0xb80e	-0.507
21	0x3787	0.4705
22	0x3983	0.689
23	0x3577	0.3416
24	0xbae5	-0.862
25	0x332b	0.224
26	0x30b4	0.147
27	0xbae7	-0.863
28	0x3f64	1.848
29	0x3ccd	1.2
30	0x2efd	0.1092
31	0xb66a	-0.401
32	0x367b	0.405
33	0xb80b	-0.5054
34	0x3dab	1.417
35	0x395d	0.6704
36	0x3d5b	1.339
37	0x35b5	0.3567
38	0x4033	2.1
39	0x4040	2.125
40	0xb922	-0.6416
41	0xb023	-0.1293
42	0x3874	0.5566
43	0x2d64	0.0842
44	0x36db	0.4285
45	0x34a7	0.2908
46	0x3160	0.168
47	0x3ef4	1.738
48	0x36e5	0.431
49	0x34c5	0.298
50	0x2e52	0.09875
51	0x30fa	0.1555
52	0xb01e	-0.1287
53	0xb201	-0.1876
54	0xb79c	-0.4756
55	0xa88e	-0.03558
56	0x3ef8	1.742
57	0xb93b	-0.654
58	0x355e	0.3354
59	0x4113	2.537
60	0x39ab	0.7085
61	0xac4e	-0.06726
62	0xba16	-0.7607
63	0x36c9	0.424
64	0xbdf4	-1.488
65	0x342b	0.2605
66	0x3ed7	1.71
67	0xbc3c	-1.059
68	0xbaf5	-0.8696
69	0x3aa9	0.8325
70	0x30b9	0.1476
71	0xb666	-0.4
72	0xaba3	-0.05966
73	0x2b85	0.05875
74	0x3cd6	1.209
75	0x2d3e	0.0819
76	0x2ce8	0.07666
77	0x39e2	0.7354
78	0x3bb1	0.9614
79	0x2cf8	0.07764
80	0xb963	-0.6733
81	0xb6b8	-0.42
82	0x3d06	1.256
83	0x3b6f	0.929
84	0xb5cd	-0.3625
85	0xab80	-0.0586
86	0x390f	0.6323
87	0x39f0	0.742
88	0xaf71	-0.1163
89	0x3e28	1.539
90	0x9060	-0.000534
91	0x2f81	0.11725
92	0xb257	-0.1981
93	0xb87e	-0.5615
94	0x39c4	0.7207
95	0x3ce5	1.224
96	0x3c1f	1.03
97	0x3dd3	1.456
98	0x32ff	0.2186
99	0x35a5	0.3528
100	0x3b8e	0.9443
101	0x3d00	1.25
102	0x3d8c	1.387
103	0xbbc9	-0.973
104	0x32fb	0.2181
105	0x391d	0.639
106	0xb3ee	-0.2478
107	0x33f1	0.2482
108	0xb34c	-0.228
109	0x3c72	1.111
110	0x3bc0	0.9688
111	0xb9d6	-0.7295
112	0xb82d	-0.522
113	0x38b7	0.5894
114	0xbb46	-0.909
115	0xb077	-0.1395
116	0x3995	0.6978
117	0xbd0e	-1.264
118	0xb580	-0.3438
119	0x409f	2.31
120	0xa1f6	-0.01164
121	0x3a2d	0.772
122	0x39ff	0.7495
123	0x8f32	-0.0004392
124	0x3553	0.3328
125	0xb961	-0.6724
126	0x3a55	0.7915
127	0x304e	0.1345

model_9/batch_normalization_78/FusedBatchNormV3 f2 [160]
0	0xbd2a	-1.291
1	0x3b2f	0.898
2	0xbf35	-1.802
3	0xbb44	-0.908
4	0xb59b	-0.3503
5	0x3d6f	1.358
6	0xb8b9	-0.5903
7	0xb80e	-0.507
8	0xb348	-0.2275
9	0x39ba	0.716
10	0xbb23	-0.892
11	0xb76d	-0.464
12	0xb96f	-0.679
13	0x3ca0	1.156
14	0x3020	0.1289
15	0x3980	0.6875
16	0xb6f6	-0.435
17	0xbb2c	-0.8965
18	0xaae9	-0.054
19	0xbc19	-1.024
20	0xb671	-0.4026
21	0xbb75	-0.932
22	0xb371	-0.2325
23	0x3708	0.4395
24	0xa85b	-0.03403
25	0x2cae	0.0731
26	0xb6fc	-0.4365
27	0x3b93	0.947
28	0x3aa3	0.8296
29	0xb96c	-0.6777
30	0x3b88	0.9414
31	0xbc12	-1.018
32	0x3617	0.3806
33	0xb6c0	-0.4219
34	0x2f7b	0.1169
35	0xb996	-0.698
36	0xb1e4	-0.1841
37	0xb667	-0.4001
38	0xbe36	-1.553
39	0xb4f2	-0.309
40	0xbc80	-1.125
41	0xbfa7	-1.913
42	0xb8c7	-0.597
43	0xb9b7	-0.7144
44	0xb55e	-0.3354
45	0x37f2	0.4966
46	0x205a	0.0085
47	0xb903	-0.6265
48	0xb60e	-0.3784
49	0x954e	-0.001295
50	0x3c02	1.002
51	0x3763	0.4617
52	0x3c2e	1.045
53	0xb773	-0.4656
54	0xbdf3	-1.487
55	0x3b8b	0.943
56	0x3974	0.6816
57	0xb73e	-0.4526
58	0xbde7	-1.476
59	0xbce1	-1.22
60	0xb6c2	-0.4224
61	0xb9b3	-0.7124
62	0xaec7	-0.1059
63	0x3291	0.2052
64	0xbcc6	-1.193
65	0x3cb4	1.176
66	0xb0d9	-0.1515
67	0x3bc7	0.972
68	0xb54c	-0.331
69	0xbb9e	-0.952
70	0xb7ea	-0.4946
71	0x3570	0.3398
72	0xba6e	-0.8037
73	0xbc54	-1.082
74	0x2e6d	0.1004
75	0xbd21	-1.282
76	0xb952	-0.665
77	0xab04	-0.0548
78	0xbc6e	-1.107
79	0xbba9	-0.9575
80	0xb914	-0.635
81	0xbcb9	-1.181
82	0xadf0	-0.0928
83	0xb760	-0.461
84	0x3d2d	1.294
85	0xbb58	-0.918
86	0xba83	-0.814
87	0xb7d7	-0.49
88	0x3395	0.2369
89	0x38bd	0.5923
90	0xbea7	-1.663
91	0xbc64	-1.098
92	0x37ad	0.4797
93	0xb00c	-0.1265
94	0x379f	0.4763
95	0x2a59	0.0496
96	0xb99b	-0.7007
97	0xbf82	-1.877
98	0xb28f	-0.205
99	0xb8ad	-0.5845
100	0x33a2	0.2385
101	0xbe63	-1.597
102	0xbb94	-0.9473
103	0xb247	-0.1962
104	0x310b	0.1576
105	0xb867	-0.5503
106	0xb6c1	-0.422
107	0x3b28	0.8945
108	0x3ab1	0.8364
109	0xbc1b	-1.026
110	0xb88f	-0.57
111	0x3621	0.383
112	0x34b0	0.293
113	0xbdb0	-1.422
114	0x382c	0.5215
115	0xbbf4	-0.994
116	0xb716	-0.4429
117	0x34a7	0.2908
118	0xbe57	-1.585
119	0xbebf	-1.687
120	0x3c0c	1.012
121	0xb86b	-0.5522
122	0xbd8a	-1.385
123	0xbc86	-1.131
124	0xb826	-0.5186
125	0x33af	0.2401
126	0xb591	-0.348
127	0x2a1d	0.04776
128	0xb747	-0.4548
129	0xb851	-0.5396
130	0xbc52	-1.08
131	0x3cf6	1.24
132	0x3887	0.566
133	0xb85a	-0.544
134	0xb048	-0.1338
135	0xbcfc	-1.246
136	0xb614	-0.38
137	0x2a4f	0.0493
138	0xbabe	-0.843
139	0xbd0b	-1.261
140	0x34f1	0.3088
141	0xba74	-0.8066
142	0xbb3d	-0.905
143	0xb592	-0.3481
144	0xb25f	-0.1991
145	0xbed9	-1.712
146	0xba83	-0.814
147	0xbe7a	-1.619
148	0xb899	-0.5747
149	0xb931	-0.649
150	0xb61a	-0.3813
151	0xb408	-0.252
152	0xb4c3	-0.2976
153	0xb8dd	-0.608
154	0xb6c1	-0.422
155	0xb95c	-0.67
156	0xb83a	-0.5283
157	0xab3c	-0.05652
158	0x36c8	0.4238
159	0xb4b1	-0.2932

model_9/batch_normalization_79/FusedBatchNormV3 f2 [320]
0	0xb815	-0.5103
1	0x3648	0.3926
2	0xbd78	-1.367
3	0xbbfc	-0.998
4	0xbb8b	-0.943
5	0xac2a	-0.06506
6	0xa369	-0.01447
7	0xb34a	-0.2278
8	0xb17f	-0.1718
9	0x2d2c	0.0808
10	0xba89	-0.817
11	0x2d19	0.07965
12	0xb1ff	-0.1874
13	0xbba1	-0.9536
14	0xbcba	-1.182
15	0xb729	-0.4475
16	0x344e	0.269
17	0xb40e	-0.2534
18	0xba88	-0.8164
19	0xb8fa	-0.622
20	0xb98c	-0.6934
21	0xb49e	-0.2886
22	0xb6f5	-0.4348
23	0xb956	-0.667
24	0x2a3c	0.0487
25	0xb02c	-0.1304
26	0xb455	-0.2708
27	0xb940	-0.6562
28	0x3840	0.5312
29	0xa6f1	-0.02711
30	0xbca3	-1.159
31	0xb914	-0.635
32	0xbb40	-0.9062
33	0xbbf4	-0.994
34	0xb626	-0.3843
35	0xb389	-0.2355
36	0xae57	-0.09906
37	0xb738	-0.4512
38	0xba73	-0.806
39	0x3a47	0.7847
40	0xb774	-0.4658
41	0x3523	0.321
42	0xba19	-0.762
43	0xb199	-0.1749
44	0x3bb3	0.9624
45	0xba95	-0.8228
46	0x2b91	0.0591
47	0xb8d1	-0.602
48	0x3228	0.1924
49	0xa851	-0.03372
50	0xb8a5	-0.5806
51	0xb9db	-0.732
52	0x964a	-0.001535
53	0xb9cc	-0.7246
54	0xbbc6	-0.9717
55	0xb8fa	-0.622
56	0xb439	-0.264
57	0x307d	0.1403
58	0xb13a	-0.1633
59	0xb804	-0.502
60	0xb647	-0.3923
61	0xa737	-0.02818
62	0xb17e	-0.1716
63	0xb912	-0.634
64	0x380d	0.5063
65	0xba04	-0.752
66	0xbcf5	-1.239
67	0xb8ef	-0.6167
68	0xb28a	-0.2043
69	0xb8be	-0.593
70	0xb29c	-0.2065
71	0xb106	-0.157
72	0xb713	-0.4421
73	0xaddc	-0.09155
74	0xbaf0	-0.867
75	0xaca9	-0.0728
76	0xbab1	-0.8364
77	0x37bb	0.4832
78	0xbc18	-1.023
79	0xba84	-0.8145
80	0xb7e9	-0.4944
81	0xb697	-0.4119
82	0xb417	-0.2556
83	0x2d24	0.0803
84	0xb952	-0.665
85	0xab46	-0.05682
86	0xb757	-0.4587
87	0xb93f	-0.656
88	0xb52f	-0.324
89	0xbc8a	-1.135
90	0x2d6e	0.08484
91	0x30ad	0.1461
92	0x3805	0.5024
93	0xb34a	-0.2278
94	0xb4cb	-0.2996
95	0xb5fd	-0.3743
96	0xb32e	-0.2244
97	0xbac3	-0.845
98	0xb1d8	-0.1826
99	0xb55e	-0.3354
100	0x1539	0.001275
101	0x31e9	0.1847
102	0x32da	0.2141
103	0xbc45	-1.067
104	0x3422	0.2583
105	0xb3cb	-0.2435
106	0xb804	-0.502
107	0xbafd	-0.8735
108	0xb306	-0.2195
109	0xb464	-0.2744
110	0x31a2	0.176
111	0xb887	-0.566
112	0xb850	-0.539
113	0xbac1	-0.844
114	0x3508	0.3145
115	0xb95f	-0.6714
116	0xb51e	-0.3198
117	0x3073	0.139
118	0xb221	-0.1915
119	0x36bd	0.4211
120	0xb85c	-0.545
121	0xbb1f	-0.89
122	0xb699	-0.4124
123	0xb82a	-0.5205
124	0xb9f9	-0.7466
125	0x30de	0.1521
126	0x3c00	1.0
127	0x3194	0.1743
128	0xb193	-0.1742
129	0xbaa3	-0.8296
130	0x2a78	0.05054
131	0xb866	-0.55
132	0xb15d	-0.1676
133	0xbc78	-1.117
134	0xac6d	-0.06915
135	0xb9f5	-0.7446
136	0xb561	-0.3362
137	0xb7b3	-0.4812
138	0xb838	-0.5273
139	0xb57f	-0.3435
140	0xba9c	-0.826
141	0xb77f	-0.4685
142	0xb29f	-0.2069
143	0x38a3	0.5796
144	0x9fd5	-0.00765
145	0xb93e	-0.6553
146	0xb90e	-0.632
147	0xb5f0	-0.371
148	0xb625	-0.384
149	0xb54b	-0.3308
150	0xb21c	-0.1909
151	0xb8bc	-0.592
152	0xbca2	-1.158
153	0xbe07	-1.507
154	0xb766	-0.4624
155	0xb740	-0.4531
156	0xbc4d	-1.075
157	0x1fb9	0.00754
158	0xb386	-0.2351
159	0xb46e	-0.2769
160	0x3825	0.518
161	0x34f2	0.309
162	0xbc5d	-1.091
163	0xb99a	-0.7
164	0x313d	0.1637
165	0xb73d	-0.4524
166	0xb74c	-0.456
167	0xb868	-0.551
168	0x3122	0.1604
169	0xb8b7	-0.5894
170	0x3729	0.4475
171	0xbae9	-0.864
172	0xb68b	-0.409
173	0xb62b	-0.3855
174	0xb58b	-0.3464
175	0xbc85	-1.13
176	0x2c5b	0.06805
177	0xbba0	-0.953
178	0xbd7f	-1.374
179	0x31c7	0.1805
180	0xb8fe	-0.624
181	0x37ef	0.4958
182	0xb562	-0.3364
183	0xb2f1	-0.2169
184	0xb734	-0.4502
185	0xbd3f	-1.312
186	0xb944	-0.658
187	0x37f0	0.496
188	0xad00	-0.0781
189	0x2828	0.03247
190	0x246f	0.01732
191	0xbd31	-1.298
192	0x3015	0.1276
193	0xb599	-0.3499
194	0xb4c3	-0.2976
195	0x3b0a	0.88
196	0xb79b	-0.4753
197	0xbc04	-1.004
198	0xb74b	-0.4558
199	0xb432	-0.2622
200	0x2c51	0.06744
201	0xb6d4	-0.4268
202	0xb2e4	-0.2153
203	0xbd57	-1.335
204	0x396d	0.678
205	0x3208	0.1885
206	0xb9cb	-0.724
207	0x2d29	0.0806
208	0x0b53	0.0002235
209	0x30ad	0.1461
210	0x2d2d	0.0809
211	0xae24	-0.09595
212	0xb64e	-0.394
213	0xb88b	-0.568
214	0xbb0a	-0.88
215	0x32bb	0.2103
216	0x3853	0.5405
217	0xb941	-0.6567
218	0xae99	-0.1031
219	0xb2f8	-0.2178
220	0xb491	-0.2854
221	0xba42	-0.782
222	0xbaa0	-0.828
223	0x35d3	0.364
224	0xb1ea	-0.1848
225	0xb90f	-0.6323
226	0x373c	0.4521
227	0xb984	-0.6895
228	0xba88	-0.8164
229	0xb56c	-0.3389
230	0xbb00	-0.875
231	0xb61f	-0.3826
232	0xbbff	-0.9995
233	0xbb0c	-0.881
234	0x3075	0.1393
235	0xb993	-0.697
236	0xb5ba	-0.358
237	0xb442	-0.266
238	0xaef4	-0.10864
239	0xbcd4	-1.207
240	0xae39	-0.0972
241	0xb3ce	-0.2439
242	0xad7a	-0.0856
243	0x2e2a	0.0963
244	0xb85c	-0.545
245	0xb013	-0.1273
246	0x3392	0.2366
247	0xa731	-0.02809
248	0xb0a7	-0.1454
249	0x2b09	0.05496
250	0x39c4	0.7207
251	0xb09d	-0.1442
252	0x32ce	0.2126
253	0xb220	-0.1914
254	0xb53c	-0.3271
255	0x2ccf	0.07513

model_9/dense_9/MatMul f2 [6, 320]
0	0x1a83	0.00318
1	0xb12f	-0.162
2	0x2a00	0.04688
3	0xb1aa	-0.177
4	0xb023	-0.1293
5	0xb0c7	-0.1493
6	0x238e	0.014755
7	0x3006	0.1257
8	0x2c48	0.0669
9	0xac13	-0.06366
10	0xab76	-0.0583
11	0xaeda	-0.10706
12	0x2c70	0.06934
13	0x303f	0.1327
14	0xac73	-0.0695
15	0xac37	-0.06586
16	0x2fae	0.12
17	0xb0c1	-0.1486
18	0xb099	-0.1437
19	0x2e68	0.1001
20	0x2fb0	0.1201
21	0x283c	0.03308
22	0xa466	-0.01718
23	0xae16	-0.0951
24	0xaaab	-0.0521
25	0x2927	0.04025
26	0xa443	-0.01665
27	0x017c	2.265e-05
28	0x2ec9	0.106
29	0xa68c	-0.02557
30	0x2af7	0.0544
31	0x2677	0.02525
32	0x22a4	0.01297
33	0xae61	-0.0997
34	0x2c9a	0.0719
35	0xb0e6	-0.1531
36	0xadbb	-0.08954
37	0x2c02	0.0626
38	0xb1c9	-0.1808
39	0x1f7f	0.00732
40	0xa59f	-0.02196
41	0x22c9	0.01325
42	0x2716	0.02768
43	0x2aa1	0.0518
44	0xaba4	-0.0597
45	0x2af9	0.05447
46	0x29c3	0.045
47	0x2e6a	0.1002
48	0xa8df	-0.03806
49	0x2ea7	0.10394
50	0x30ab	0.1459
51	0x3030	0.1309
52	0x2c13	0.06366
53	0xa1e2	-0.01149
54	0x28c6	0.0373
55	0x2a1c	0.04773
56	0xa5bd	-0.02242
57	0xac6a	-0.069
58	0x2dd6	0.0912
59	0x22ef	0.01354
60	0x2009	0.00788
61	0x29d8	0.04565
62	0x24dd	0.019
63	0xaea5	-0.1038
64	0xacfc	-0.0779
65	0xb10f	-0.1581
66	0x2d13	0.0793
67	0x2ded	0.0926
68	0xae8c	-0.1023
69	0xa13b	-0.010216
70	0xad06	-0.0785
71	0xad09	-0.0787
72	0xaf1e	-0.1112
73	0xad11	-0.07916
74	0x3010	0.127
75	0xaef5	-0.1087
76	0x2c73	0.0695
77	0xae94	-0.1028
78	0x2da3	0.0881
79	0x27fe	0.03122
80	0x2dc2	0.08997
81	0x96c8	-0.001656
82	0x2ef2	0.1085
83	0xb04a	-0.134
84	0x1b93	0.003698
85	0xb084	-0.1411
86	0x2da1	0.08795
87	0x2b38	0.0564
88	0x2543	0.02055
89	0xae67	-0.10004
90	0x28fd	0.03897
91	0xb07f	-0.1405
92	0xb00c	-0.1265
93	0xae97	-0.10297
94	0xac51	-0.06744
95	0x2d70	0.08496
96	0x2fac	0.1199
97	0x2807	0.03146
98	0x2bb9	0.06033
99	0x28bf	0.03708
100	0xb02e	-0.1306
101	0xb034	-0.1313
102	0x22e8	0.01349
103	0x2330	0.01404
104	0xad9e	-0.08777
105	0x2d8f	0.08685
106	0x2768	0.02893
107	0xb0ae	-0.1462
108	0xb118	-0.1592
109	0x2e59	0.0992
110	0xa68b	-0.02556
111	0xb020	-0.1289
112	0x2b6a	0.05792
113	0xad75	-0.08527
114	0xa948	-0.04126
115	0xac86	-0.0707
116	0xaee6	-0.1078
117	0xadea	-0.0924
118	0xae81	-0.1016
119	0xb0b9	-0.1476
120	0x2e75	0.1009
121	0xa458	-0.01697
122	0x302a	0.1301
123	0x2b68	0.05786
124	0x28f2	0.03864
125	0x2988	0.0432
126	0xada7	-0.0883
127	0x3011	0.1271
128	0x9ff8	-0.007782
129	0x1ddc	0.005722
130	0x30c6	0.1492
131	0xa23a	-0.01216
132	0xafd2	-0.1222
133	0xb023	-0.1293
134	0xb000	-0.125
135	0x908a	-0.000554
136	0x2ddb	0.0915
137	0x2e09	0.0943
138	0x3014	0.1274
139	0xadbf	-0.0898
140	0xb048	-0.1338
141	0xa2e8	-0.01349
142	0x2e7b	0.10126
143	0x2f67	0.11566
144	0x2f33	0.1125
145	0xaf90	-0.11816
146	0xaecf	-0.1064
147	0xaecd	-0.10626
148	0xa136	-0.01018
149	0x29ac	0.0443
150	0xb190	-0.1738
151	0xa801	-0.03128
152	0x2dad	0.0887
153	0x3055	0.1354
154	0x2c06	0.06287
155	0xb073	-0.139
156	0xadd4	-0.09106
157	0xb140	-0.1641
158	0x2d4f	0.08295
159	0xaaac	-0.05212
160	0xb119	-0.1593
161	0xac28	-0.06494
162	0xb226	-0.1921
163	0x9023	-0.000505
164	0x2656	0.02475
165	0xafe2	-0.12317
166	0xb043	-0.1332
167	0x2e15	0.09503
168	0xadf4	-0.093
169	0xaa3f	-0.0488
170	0x2de0	0.0918
171	0x9b72	-0.003635
172	0xb0c4	-0.1489
173	0xaee3	-0.1076
174	0xaf4b	-0.11395
175	0xae55	-0.09894
176	0xaf4e	-0.11414
177	0x2d64	0.0842
178	0xa2d4	-0.013336
179	0x2e9c	0.1033
180	0xb0d2	-0.1506
181	0xb079	-0.1398
182	0xad01	-0.0782
183	0x1c10	0.003967
184	0x262f	0.02415
185	0x1c3b	0.00413
186	0x2bac	0.05994
187	0x2d40	0.08203
188	0x2e9c	0.1033
189	0xaf22	-0.11145
190	0x2f15	0.11066
191	0x1b00	0.003418
192	0xae6e	-0.10046
193	0xaac6	-0.05292
194	0xac9e	-0.07214
195	0xaf38	-0.1128
196	0x2cca	0.0748
197	0xaa1e	-0.0478
198	0x9df3	-0.00581
199	0x2882	0.03522
200	0xa5ad	-0.02217
201	0xa54a	-0.02066
202	0xa298	-0.01288
203	0xadf8	-0.09326
204	0xad95	-0.0872
205	0xb030	-0.1309
206	0x2f25	0.11163
207	0x2833	0.0328
208	0xa901	-0.0391
209	0x2d41	0.0821
210	0xa92a	-0.04034
211	0xb11b	-0.1595
212	0xaf6e	-0.1161
213	0xaa80	-0.05078
214	0x2d36	0.0814
215	0x2a22	0.0479
216	0xb006	-0.1257
217	0x2f49	0.11383
218	0x2cd2	0.0753
219	0xaea7	-0.10394
220	0xaecd	-0.10626
221	0x301b	0.1283
222	0x2a92	0.05133
223	0xaa74	-0.0504
224	0x2b38	0.0564
225	0xae6f	-0.1005
226	0xad93	-0.0871
227	0x1b6d	0.003626
228	0x9d60	-0.00525
229	0xafb9	-0.12067
230	0xb07e	-0.1404
231	0x2c11	0.06354
232	0x1f59	0.007175
233	0xa4c7	-0.01866
234	0xac59	-0.06793
235	0xb09c	-0.144
236	0x2f73	0.1164
237	0x2055	0.00846
238	0xac92	-0.0714
239	0x255a	0.0209
240	0x307a	0.1399
241	0xad9e	-0.08777
242	0x2e53	0.0988
243	0x28df	0.03806
244	0xad77	-0.0854
245	0x289a	0.03595
246	0xb12b	-0.1615
247	0xa574	-0.0213
248	0xad23	-0.08026
249	0x3062	0.137
250	0x2da7	0.0883
251	0xa39f	-0.014885
252	0xb069	-0.1378
253	0x2ef1	0.10846
254	0xac0c	-0.06323
255	0x2f4d	0.1141

model_9/conv2d_72/Conv2D f2 [32, 11, 1, 1]
0	0x2c03	0.0627
1	0x3431	0.262
2	0x2893	0.03574
3	0xb02d	-0.1305
4	0xb4b1	-0.2932
5	0xb594	-0.3486
6	0xb463	-0.2742
7	0x359a	0.35
8	0x3224	0.1919
9	0x37b7	0.4822
10	0xb709	-0.4397
11	0x302f	0.1307
12	0x31a5	0.1764
13	0x2de6	0.09216
14	0x30ec	0.1538
15	0x2490	0.01782
16	0xaf4a	-0.1139
17	0x3245	0.1959
18	0xb54b	-0.3308
19	0xb64b	-0.3933
20	0x335a	0.2297
21	0x3217	0.1903
22	0x3143	0.1644
23	0x3018	0.1279
24	0x2e1a	0.09534
25	0xaf2c	-0.11206
26	0xa805	-0.0314
27	0x21f8	0.01166
28	0xa908	-0.0393
29	0x1b69	0.003618
30	0x29bd	0.04483
31	0x2cc3	0.0744
32	0x3088	0.1416
33	0xb168	-0.169
34	0xb6bf	-0.4216
35	0x3a29	0.77
36	0xa178	-0.01068
37	0xb3f7	-0.2489
38	0x305b	0.1361
39	0xb719	-0.4436
40	0x378e	0.4722
41	0xbb36	-0.9014
42	0x30f8	0.1553
43	0x3994	0.6973
44	0x30aa	0.1458
45	0xb483	-0.282
46	0x3468	0.2754
47	0x2b9f	0.05954
48	0x333d	0.2262
49	0x3560	0.336
50	0xb2c6	-0.2117
51	0xb5e0	-0.3672
52	0x3360	0.2305
53	0xb41d	-0.257
54	0x32dd	0.2145
55	0xb14e	-0.1658
56	0x3140	0.1641
57	0xa94e	-0.04144
58	0xb245	-0.1959
59	0xb04a	-0.134
60	0xa165	-0.01054
61	0x30d9	0.1515
62	0xb067	-0.1376
63	0xad31	-0.0811
64	0xa40a	-0.01578
65	0x999f	-0.002745
66	0x294b	0.04135
67	0x2d7d	0.08575
68	0x2fab	0.1198
69	0xa8ad	-0.03653
70	0x3109	0.1573
71	0x2e2f	0.0966
72	0xaa84	-0.0509
73	0xa44e	-0.01682
74	0xa9fd	-0.04678
75	0x2dbf	0.0898
76	0x2810	0.03174
77	0x376d	0.464
78	0xaebd	-0.1053
79	0x316a	0.1692
80	0xb63d	-0.39
81	0xb10d	-0.1578
82	0xae50	-0.09863
83	0x2ced	0.07697
84	0xb831	-0.524
85	0x27fa	0.03116
86	0x34b5	0.2942
87	0x34ca	0.2993
88	0xb060	-0.1367
89	0xb2c8	-0.2119
90	0x320e	0.1892
91	0x1db7	0.00558
92	0x2cf3	0.07733
93	0xaee7	-0.10785
94	0xa8b8	-0.03687
95	0x2d84	0.0862
96	0xb169	-0.1691
97	0x2c81	0.0704
98	0xb403	-0.2507
99	0x2eed	0.1082
100	0xae6d	-0.1004
101	0x2f49	0.11383
102	0x2f1b	0.111
103	0xaf06	-0.10974
104	0xb041	-0.1329
105	0x30b9	0.1476
106	0x2ef2	0.1085
107	0x3133	0.1625
108	0xa81c	-0.0321
109	0x2e37	0.0971
110	0x2cfc	0.0779
111	0x344b	0.2683
112	0xb2f8	-0.2178
113	0xaa69	-0.05008
114	0x2626	0.02402
115	0xb270	-0.2012
116	0xae8b	-0.10223
117	0xb4d2	-0.3013
118	0x3206	0.1882
119	0xb143	-0.1644
120	0x2ef7	0.1088
121	0x3447	0.2673
122	0xba74	-0.8066
123	0x34b3	0.2937
124	0x3a04	0.752
125	0xb98f	-0.695
126	0x38fb	0.6226
127	0xb687	-0.408
128	0xbb3f	-0.906
129	0x3c44	1.066
130	0xb7c6	-0.4858
131	0x3046	0.1335
132	0xb3e2	-0.2463
133	0x3480	0.2812
134	0xb140	-0.1641
135	0x34e5	0.306
136	0x3413	0.2546
137	0x30c9	0.1495
138	0xb086	-0.1414
139	0x35db	0.366
140	0xb5a4	-0.3525
141	0xb44e	-0.269
142	0xb267	-0.2001
143	0xb377	-0.2333
144	0x2e46	0.098
145	0x37dc	0.4912
146	0xb7cb	-0.487
147	0xb805	-0.5024
148	0xae93	-0.1027
149	0x3506	0.314
150	0x3702	0.438
151	0xb0cb	-0.1498
152	0x34e3	0.3054
153	0xb5c2	-0.3599
154	0xb135	-0.1627
155	0xa697	-0.02574
156	0x3258	0.1982
157	0xb1ff	-0.1874
158	0xb07b	-0.14
159	0xaccc	-0.07495
160	0x8dd4	-0.0003557
161	0xadf5	-0.0931
162	0xb1c8	-0.1807
163	0x2e9d	0.10333
164	0x304d	0.1344
165	0xb178	-0.1709
166	0x2e84	0.1018
167	0x22ab	0.01302
168	0x9f7d	-0.007313
169	0xae07	-0.0942
170	0x3503	0.3132
171	0xad60	-0.084
172	0x2084	0.00882
173	0xaf3a	-0.1129
174	0xb0ae	-0.1462
175	0xb3f1	-0.2482
176	0xb0ae	-0.1462
177	0xb5d1	-0.3635
178	0xaa94	-0.0514
179	0x34b8	0.295
180	0xb145	-0.1647
181	0x2870	0.03467
182	0x3533	0.325
183	0x24d5	0.01888
184	0x3476	0.2788
185	0xb436	-0.2632
186	0xb4da	-0.3032
187	0x3108	0.1572
188	0x9b64	-0.003609
189	0x3204	0.188
190	0x1c19	0.004
191	0xb4b7	-0.2947
192	0x3033	0.1312
193	0x351c	0.3193
194	0xb4df	-0.3044
195	0xac79	-0.0699
196	0x2c61	0.0684
197	0x3437	0.2634
198	0xb3be	-0.242
199	0xaf29	-0.1119
200	0xb03a	-0.1321
201	0xafae	-0.12
202	0xb34f	-0.2284
203	0x320e	0.1892
204	0x345a	0.272
205	0x301b	0.1283
206	0xb401	-0.2502
207	0x30e0	0.1523
208	0x34d7	0.3025
209	0x302a	0.1301
210	0x345b	0.2722
211	0x310b	0.1576
212	0xaede	-0.1073
213	0x30bc	0.148
214	0xb202	-0.1877
215	0xb1fe	-0.1873
216	0xb317	-0.2216
217	0xb149	-0.1652
218	0xb0bd	-0.1481
219	0x3267	0.2001
220	0xa925	-0.0402
221	0xb461	-0.2737
222	0x3212	0.1897
223	0x363e	0.3901
224	0xb595	-0.3489
225	0xb01c	-0.1284
226	0x3753	0.4578
227	0x2c4e	0.06726
228	0xb5e3	-0.368
229	0xb6c7	-0.4236
230	0x3085	0.1412
231	0xa8ef	-0.03854
232	0xaf49	-0.11383
233	0xa600	-0.02344
234	0xb109	-0.1573
235	0x24ff	0.01952
236	0xa316	-0.01384
237	0x2ed0	0.10645
238	0xaf7c	-0.11694
239	0xafed	-0.12384
240	0xa917	-0.03976
241	0x24a7	0.01817
242	0x311b	0.1595
243	0xb220	-0.1914
244	0xb4d9	-0.303
245	0x342e	0.2612
246	0x30a3	0.1449
247	0xb3ff	-0.2499
248	0xa285	-0.01273
249	0xb2b0	-0.209
250	0x3082	0.1409
251	0xa8be	-0.03705
252	0xb11c	-0.1597
253	0xa73f	-0.0283
254	0x274d	0.02852
255	0xab53	-0.05722

model_9/conv2d_73/Conv2D f2 [32, 1, 9, 1]
0	0x3341	0.2267
1	0x2b7a	0.0584
2	0xb223	-0.1918
3	0xadb5	-0.0892
4	0xb2ff	-0.2186
5	0x2f6c	0.11597
6	0xb396	-0.237
7	0xa0ac	-0.009125
8	0x2b80	0.0586
9	0xa82b	-0.03256
10	0x2cb4	0.0735
11	0x2cb5	0.07355
12	0x25e3	0.023
13	0xb452	-0.27
14	0xb6fd	-0.4368
15	0xa9ab	-0.04428
16	0xacd8	-0.0757
17	0xac62	-0.0685
18	0x337d	0.234
19	0x3055	0.1354
20	0xb02a	-0.1301
21	0xac81	-0.0704
22	0x34e4	0.3057
23	0x3355	0.2291
24	0xb259	-0.1984
25	0xb426	-0.2593
26	0x306c	0.1382
27	0x2db7	0.0893
28	0xb432	-0.2622
29	0xb27c	-0.2026
30	0xb163	-0.1683
31	0xb356	-0.2292
32	0x9845	-0.002085
33	0x29dd	0.0458
34	0x27c7	0.03038
35	0xa8cd	-0.0375
36	0xb4ab	-0.2917
37	0xae72	-0.1007
38	0x2d0c	0.07886
39	0x32f9	0.2179
40	0x331c	0.2222
41	0x2f65	0.11554
42	0xb0b8	-0.1475
43	0xb475	-0.2786
44	0x2d7e	0.0858
45	0xb273	-0.2015
46	0x3388	0.2354
47	0x2bb9	0.06033
48	0x2f41	0.11334
49	0x31c2	0.1799
50	0x2c3a	0.06604
51	0x2ca6	0.07263
52	0xb5c4	-0.3604
53	0x3555	0.3333
54	0xb290	-0.2051
55	0xb316	-0.2214
56	0xb06c	-0.1382
57	0xb0c9	-0.1495
58	0xb2f0	-0.2168
59	0xaf30	-0.1123
60	0xaf01	-0.10944
61	0xaae4	-0.05383
62	0xb1df	-0.1835
63	0xb34c	-0.228
64	0xb0bb	-0.1478
65	0xa484	-0.01764
66	0xa99b	-0.0438
67	0x18ca	0.002338
68	0x32ab	0.2084
69	0xb235	-0.194
70	0x31fa	0.1868
71	0xb110	-0.1582
72	0xa583	-0.02153
73	0x2dbb	0.08954
74	0xaf3b	-0.113
75	0x31fb	0.1869
76	0x2d73	0.08514
77	0x9eaf	-0.006527
78	0xb338	-0.2256
79	0x32d5	0.2135
80	0xb39e	-0.238
81	0x3011	0.1271
82	0x2e5f	0.09955
83	0xb434	-0.2627
84	0xac72	-0.06946
85	0x354f	0.3318
86	0xb424	-0.2588
87	0xa8b1	-0.03665
88	0x2ff4	0.12427
89	0xb4dd	-0.304
90	0xb070	-0.1387
91	0xb0f6	-0.155
92	0xb1d3	-0.182
93	0xaea4	-0.10376
94	0xb037	-0.1317
95	0xb548	-0.33
96	0x34ca	0.2993
97	0x331e	0.2224
98	0xaf17	-0.1108
99	0x33a4	0.2388
100	0xb217	-0.1903
101	0xae32	-0.0968
102	0x31f8	0.1865
103	0xb29c	-0.2065
104	0xad27	-0.0805
105	0x2fc2	0.1212
106	0x2a5d	0.0497
107	0x34c8	0.2988
108	0xb323	-0.223
109	0xb3e6	-0.2468
110	0xaf9b	-0.11884
111	0xa6c6	-0.02646
112	0x31fe	0.1873
113	0xaebd	-0.1053
114	0xb4c2	-0.2974
115	0x34db	0.3035
116	0xb0a7	-0.1454
117	0x3213	0.1898
118	0x331c	0.2222
119	0x3159	0.1671
120	0xadfc	-0.0935
121	0x32a1	0.2072
122	0xb286	-0.2039
123	0xb33c	-0.2261
124	0x2f39	0.11285
125	0xac2b	-0.0651
126	0x31fe	0.1873
127	0x3412	0.2544
128	0xa625	-0.024
129	0xb3c4	-0.2427
130	0xa0d4	-0.00943
131	0xac44	-0.06665
132	0xb21e	-0.1912
133	0xb430	-0.2617
134	0xb150	-0.166
135	0xb1a5	-0.1764
136	0x3113	0.1586
137	0x2d5f	0.0839
138	0x30e2	0.1526
139	0xac81	-0.0704
140	0x326a	0.2004
141	0x3366	0.2312
142	0x330a	0.22
143	0x311d	0.1598
144	0xb382	-0.2346
145	0x30a4	0.145
146	0x164c	0.001537
147	0xa51a	-0.01993
148	0xb2c4	-0.2114
149	0xb4a7	-0.2908
150	0x343a	0.2642
151	0xafb5	-0.1204
152	0x3203	0.1879
153	0xb4fa	-0.311
154	0xacac	-0.073
155	0x2f96	0.1185
156	0xb0c8	-0.1494
157	0x2d38	0.08154
158	0x33f8	0.249
159	0x30f3	0.1547
160	0xb4cf	-0.3005
161	0x32a8	0.208
162	0xb1a7	-0.1766
163	0xac67	-0.0688
164	0xb132	-0.1624
165	0xb31a	-0.2219
166	0x31b8	0.1787
167	0xb1f0	-0.1855
168	0x1b4f	0.003569
169	0xafc2	-0.1212
170	0x2a39	0.0486
171	0x2467	0.0172
172	0x33ac	0.2397
173	0x3424	0.2588
174	0x29e0	0.0459
175	0x3114	0.1587
176	0x3199	0.1749
177	0xaca3	-0.07245
178	0x2f5a	0.11487
179	0x3701	0.4377
180	0x24dc	0.01898
181	0xb08c	-0.1421
182	0x2e92	0.10266
183	0x3276	0.2019
184	0x2aef	0.05417
185	0x30d7	0.1512
186	0x3456	0.271
187	0xb53f	-0.328
188	0x34e3	0.3054
189	0xafe9	-0.1236
190	0xb1db	-0.183
191	0x2852	0.03375
192	0xaf36	-0.1127
193	0x31dd	0.1832
194	0xb2ff	-0.2186
195	0x3401	0.2502
196	0x323a	0.1946
197	0xaf23	-0.1115
198	0x3129	0.1613
199	0x2e3e	0.09753
200	0xb362	-0.2307
201	0xb2ed	-0.2164
202	0xb344	-0.227
203	0xad22	-0.0802
204	0x3437	0.2634
205	0x344a	0.268
206	0xae4c	-0.0984
207	0xb0f8	-0.1553
208	0xb2ea	-0.2161
209	0xace2	-0.0763
210	0x285f	0.03415
211	0xaea5	-0.1038
212	0x343a	0.2642
213	0x30e9	0.1534
214	0x2f53	0.11444
215	0xb40f	-0.2537
216	0xb3b8	-0.2412
217	0x319e	0.1755
218	0xad55	-0.0833
219	0x2613	0.02373
220	0x31ea	0.1848
221	0xad26	-0.08044
222	0xb2a6	-0.2078
223	0x30cf	0.1503
224	0xb1c8	-0.1807
225	0x33f8	0.249
226	0x3384	0.2349
227	0xb121	-0.1603
228	0x234c	0.01425
229	0x31a7	0.1766
230	0x3440	0.2656
231	0x33d9	0.2452
232	0xaf13	-0.11053
233	0xb0c2	-0.1487
234	0xb5b0	-0.3555
235	0xb0cc	-0.1499
236	0xabd6	-0.06122
237	0xae3f	-0.0976
238	0x9a3a	-0.00304
239	0xa98e	-0.0434
240	0xa303	-0.013695
241	0xb5cf	-0.363
242	0x30a7	0.1454
243	0xae78	-0.1011
244	0x2a7d	0.0507
245	0xb25b	-0.1986
246	0x3043	0.1332
247	0x3250	0.1973
248	0x2ef5	0.1087
249	0x34c7	0.2986
250	0x339c	0.2378
251	0xb0a4	-0.145
252	0x23b3	0.01504
253	0xab66	-0.0578
254	0xb03c	-0.1323
255	0x344a	0.268

model_9/conv2d_74/Conv2D f2 [32, 3, 3, 1]
0	0xac8d	-0.0711
1	0xb474	-0.2783
2	0xb5dd	-0.3665
3	0xb79b	-0.4753
4	0xb6d2	-0.4263
5	0xa642	-0.02444
6	0x3483	0.282
7	0x3892	0.5713
8	0x3581	0.344
9	0xb2b4	-0.2095
10	0xac75	-0.06964
11	0xb414	-0.255
12	0x9f12	-0.006905
13	0x325d	0.1989
14	0x27b3	0.03008
15	0xb219	-0.1906
16	0xad5c	-0.08374
17	0x30a2	0.1448
18	0x35b2	0.356
19	0x3b69	0.9263
20	0xb41c	-0.2568
21	0xaf5a	-0.11487
22	0xb562	-0.3364
23	0x339e	0.238
24	0xb132	-0.1624
25	0xb848	-0.535
26	0xb186	-0.1726
27	0xabb5	-0.0602
28	0x9fdc	-0.007675
29	0x356a	0.3384
30	0xb301	-0.2189
31	0x3266	0.2
32	0x3516	0.3179
33	0x2e2c	0.09644
34	0x2e68	0.1001
35	0xb41b	-0.2566
36	0xb10d	-0.1578
37	0xae7f	-0.1015
38	0xb058	-0.1357
39	0xb381	-0.2345
40	0xaf50	-0.11426
41	0x3210	0.1895
42	0xa488	-0.0177
43	0x31a5	0.1764
44	0xb0a9	-0.1456
45	0xb642	-0.391
46	0xac87	-0.07074
47	0x2ff7	0.12445
48	0x3247	0.1962
49	0xb55d	-0.3352
50	0x349d	0.2883
51	0x3581	0.344
52	0x2ecf	0.1064
53	0xb583	-0.3445
54	0xa7c9	-0.03041
55	0x327a	0.2024
56	0xb123	-0.1605
57	0xa479	-0.01747
58	0x9ca9	-0.00455
59	0xb1f8	-0.1865
60	0x3112	0.1584
61	0xa51d	-0.01997
62	0xb06b	-0.1381
63	0xaece	-0.1063
64	0xb024	-0.1294
65	0x28f5	0.03873
66	0xb007	-0.1259
67	0xaeae	-0.1044
68	0x3144	0.1646
69	0xae0a	-0.09436
70	0x26cc	0.02655
71	0x31fc	0.187
72	0xad82	-0.08606
73	0xb3f3	-0.2484
74	0x370e	0.441
75	0x28da	0.0379
76	0xb518	-0.3184
77	0xb5f5	-0.3723
78	0xb18f	-0.1737
79	0x32ac	0.2085
80	0xafc0	-0.1211
81	0xaafd	-0.0546
82	0xb133	-0.1625
83	0x3159	0.1671
84	0xac05	-0.0628
85	0xada8	-0.0884
86	0x25b1	0.02223
87	0xb18c	-0.1733
88	0xae4e	-0.0985
89	0x2423	0.01616
90	0x3659	0.3967
91	0x397d	0.686
92	0xb918	-0.6367
93	0xb12a	-0.1614
94	0xb994	-0.6973
95	0x3918	0.6367
96	0xb436	-0.2632
97	0xa81b	-0.03207
98	0xb637	-0.3884
99	0xb5b5	-0.3567
100	0x3555	0.3333
101	0xb7c6	-0.4858
102	0xb088	-0.1416
103	0x36bc	0.421
104	0xb5e0	-0.3672
105	0x377d	0.468
106	0xb978	-0.6836
107	0x3b18	0.8867
108	0xaa13	-0.04745
109	0xae43	-0.09784
110	0xb69a	-0.4126
111	0xb022	-0.1292
112	0xad1b	-0.0798
113	0x3148	0.165
114	0xb334	-0.2251
115	0x3204	0.188
116	0x3756	0.4585
117	0x368b	0.409
118	0xb323	-0.223
119	0xb555	-0.3333
120	0xb1da	-0.1829
121	0x38bc	0.592
122	0x388b	0.568
123	0xb867	-0.5503
124	0xb71b	-0.444
125	0xaf80	-0.1172
126	0xa411	-0.01588
127	0x1da9	0.005527
128	0xb087	-0.1415
129	0x307c	0.1401
130	0xa9a3	-0.04404
131	0xb2a4	-0.2075
132	0x3280	0.2031
133	0xb353	-0.2289
134	0x31d6	0.1824
135	0x341a	0.2563
136	0x3537	0.326
137	0xae40	-0.09766
138	0xb0b7	-0.1473
139	0x2fe1	0.1231
140	0x2bec	0.0619
141	0xb32d	-0.2242
142	0xb45f	-0.2732
143	0xb4b5	-0.2942
144	0x30fc	0.1558
145	0xb1f1	-0.1857
146	0x2da8	0.0884
147	0x2df0	0.0928
148	0xb2c2	-0.2112
149	0xb29e	-0.2068
150	0xb056	-0.1355
151	0x2379	0.014595
152	0x31d6	0.1824
153	0x2c2b	0.0651
154	0xb2fe	-0.2185
155	0x2ad4	0.05334
156	0x3145	0.1647
157	0xb114	-0.1587
158	0xb04e	-0.1345
159	0x27e9	0.0309
160	0x2e60	0.0996
161	0x312d	0.1617
162	0x3408	0.252
163	0x25ce	0.02267
164	0x3171	0.17
165	0xb573	-0.3406
166	0x32c2	0.2112
167	0x2816	0.03192
168	0x300b	0.1263
169	0xb108	-0.1572
170	0x353e	0.3276
171	0xad3c	-0.0818
172	0x2e0b	0.0944
173	0x307f	0.1405
174	0x26fe	0.02731
175	0xb26c	-0.2007
176	0x2e3f	0.0976
177	0x2e61	0.0997
178	0x1b0c	0.00344
179	0x33da	0.2454
180	0xa8e9	-0.03836
181	0x3411	0.2542
182	0xb2a1	-0.2072
183	0x395d	0.6704
184	0x3127	0.161
185	0x35c8	0.3613
186	0xb56e	-0.3394
187	0xb75f	-0.4607
188	0xa6d6	-0.0267
189	0x340b	0.2527
190	0x32c9	0.212
191	0x318d	0.1735
192	0x3387	0.2352
193	0xb369	-0.2316
194	0xaeb1	-0.10455
195	0xad75	-0.08527
196	0x330d	0.2203
197	0xb432	-0.2622
198	0x23bf	0.01513
199	0xa80b	-0.0316
200	0xb37c	-0.2339
201	0x30d6	0.1511
202	0xb00c	-0.1265
203	0xb025	-0.1295
204	0xaf96	-0.1185
205	0x31bc	0.1792
206	0xb1f2	-0.1858
207	0xa1d3	-0.011375
208	0x2d2f	0.081
209	0x2a62	0.04987
210	0xb0ec	-0.1538
211	0x30c0	0.1484
212	0x2e12	0.09485
213	0xafe0	-0.12305
214	0x2c4f	0.0673
215	0x31b7	0.1786
216	0x2eb6	0.10486
217	0xb00a	-0.1262
218	0x3221	0.1915
219	0xadb7	-0.0893
220	0xb215	-0.1901
221	0xb0c0	-0.1484
222	0x2d46	0.0824
223	0xaec2	-0.1056
224	0xb2b1	-0.2091
225	0x373d	0.4524
226	0xb5ce	-0.3628
227	0x3265	0.1998
228	0xb5e5	-0.3684
229	0xacb9	-0.0738
230	0xae20	-0.0957
231	0x2bdd	0.06143
232	0x2f01	0.10944
233	0xb646	-0.392
234	0x3897	0.5737
235	0xb8f9	-0.6216
236	0xb02d	-0.1305
237	0xb4fc	-0.3115
238	0x2f45	0.1136
239	0xb87a	-0.5596
240	0xb62b	-0.3855
241	0x36e0	0.4297
242	0x38b6	0.589
243	0xacf9	-0.0777
244	0xae7d	-0.1014
245	0xa7fc	-0.03119
246	0x29e5	0.04605
247	0xafc2	-0.1212
248	0x3057	0.1356
249	0x3060	0.1367
250	0xae0f	-0.09467
251	0x3076	0.1394
252	0x33b6	0.241
253	0xb30a	-0.22
254	0xaf44	-0.1135
255	0xad5e	-0.08386

model_9/conv2d_75/Conv2D f2 [64, 3, 3, 96]
0	0x2c3b	0.0661
1	0x1fba	0.007545
2	0xad00	-0.0781
3	0x2302	0.01369
4	0xa1d3	-0.011375
5	0x1dd2	0.005684
6	0xa0ac	-0.009125
7	0x2e89	0.1021
8	0x2c6f	0.0693
9	0xaa2c	-0.04822
10	0x298f	0.04343
11	0x2877	0.03488
12	0xa785	-0.02937
13	0x2e8a	0.1022
14	0xabc4	-0.06067
15	0x2484	0.01764
16	0x2c80	0.0703
17	0x2d1f	0.08
18	0xa9b3	-0.04453
19	0x289b	0.03598
20	0x2706	0.02744
21	0xabed	-0.06192
22	0x228b	0.01278
23	0x2bb1	0.0601
24	0x2613	0.02373
25	0xac5a	-0.068
26	0xaa72	-0.05035
27	0xaa56	-0.0495
28	0x2c3a	0.06604
29	0x2cc1	0.0743
30	0x2c69	0.0689
31	0x2bbc	0.06042
32	0x2e2f	0.0966
33	0xaca9	-0.0728
34	0xab36	-0.05634
35	0x218c	0.01083
36	0xaa4b	-0.04916
37	0x9cca	-0.004677
38	0x27eb	0.03093
39	0x2d1b	0.0798
40	0xab5a	-0.05743
41	0x2c97	0.0717
42	0x2ba8	0.0598
43	0xade6	-0.09216
44	0xa621	-0.02394
45	0xabd1	-0.06107
46	0xa874	-0.0348
47	0x1de3	0.00575
48	0x9b1e	-0.003475
49	0x2b08	0.05493
50	0x2856	0.03387
51	0xaa1f	-0.04782
52	0x2ed5	0.10675
53	0xae65	-0.0999
54	0xa4c2	-0.01859
55	0xa323	-0.01394
56	0x9f08	-0.006866
57	0x2620	0.02393
58	0x2275	0.01261
59	0xa932	-0.0406
60	0xac5f	-0.0683
61	0x2822	0.0323
62	0xa925	-0.0402
63	0x28d3	0.0377
64	0x2e1c	0.09546
65	0xaa92	-0.05133
66	0x97ae	-0.001875
67	0xa91d	-0.03995
68	0xace7	-0.0766
69	0x2a76	0.05048
70	0xaa76	-0.05048
71	0x26b1	0.02614
72	0x2d38	0.08154
73	0x28c8	0.03735
74	0x17f0	0.001938
75	0x24ce	0.01877
76	0x29eb	0.04623
77	0x2c56	0.06775
78	0x24b0	0.01831
79	0x2884	0.03528
80	0x2c62	0.0685
81	0x9d3b	-0.005108
82	0xa9f5	-0.04654
83	0x2c68	0.06885
84	0x2c76	0.0697
85	0xa865	-0.03433
86	0xaed5	-0.10675
87	0xa893	-0.03574
88	0xa4f5	-0.01936
89	0x2c07	0.0629
90	0xac84	-0.07056
91	0xac9c	-0.072
92	0xa830	-0.0327
93	0xa992	-0.04352
94	0x29c3	0.045
95	0x2a32	0.0484
96	0x9cea	-0.0048
97	0x27fd	0.0312
98	0x26d7	0.02672
99	0xaab5	-0.0524
100	0x2c5e	0.06824
101	0xa703	-0.02739
102	0x9667	-0.001563
103	0xade3	-0.092
104	0x2bb9	0.06033
105	0xa54f	-0.02074
106	0x27c1	0.03029
107	0xab93	-0.05917
108	0xa53e	-0.02048
109	0xa2c8	-0.013245
110	0xad51	-0.08307
111	0x2a8f	0.05124
112	0x29e8	0.04614
113	0xa88f	-0.0356
114	0x2537	0.02037
115	0xaca1	-0.0723
116	0x87dd	-0.00012
117	0xaa99	-0.05154
118	0x213e	0.01024
119	0xac4b	-0.0671
120	0x9fa9	-0.00748
121	0x2996	0.04364
122	0x9c85	-0.004414
123	0xa287	-0.01275
124	0x25f2	0.02322
125	0xa08f	-0.0089
126	0xa63d	-0.02437
127	0x24a3	0.01811
128	0x273f	0.0283
129	0xa14f	-0.01037
130	0xaa52	-0.04938
131	0x2205	0.01176
132	0x2227	0.01202
133	0x2b83	0.0587
134	0x2a1b	0.0477
135	0x2e50	0.09863
136	0x2b36	0.05634
137	0xa9d2	-0.04547
138	0x2c4c	0.06714
139	0x2a4a	0.04913
140	0x2af1	0.05423
141	0xaa89	-0.05106
142	0x2b79	0.05838
143	0x2499	0.01796
144	0x2e0e	0.0946
145	0xaac2	-0.0528
146	0x2cda	0.0758
147	0xa6b3	-0.02617
148	0xac51	-0.06744
149	0x270c	0.02753
150	0xac00	-0.0625
151	0x207e	0.00877
152	0xa849	-0.03348
153	0xabaa	-0.05988
154	0xa9cb	-0.04526
155	0x26d8	0.02673
156	0x20b4	0.009186
157	0xac10	-0.0635
158	0xaa9e	-0.0517
159	0x2ca2	0.0724
160	0xa9a2	-0.044
161	0x2510	0.01978
162	0x2cab	0.07294
163	0xae06	-0.0941
164	0xabb1	-0.0601
165	0x2d42	0.08215
166	0x2c83	0.0705
167	0x21eb	0.01156
168	0xabde	-0.06146
169	0xa5bc	-0.0224
170	0x9762	-0.001802
171	0xac94	-0.07153
172	0xac6c	-0.0691
173	0x292a	0.04034
174	0xa951	-0.04153
175	0x2e71	0.10065
176	0xab27	-0.05588
177	0x2ca2	0.0724
178	0xa98c	-0.04333
179	0xab18	-0.05542
180	0x2a30	0.04834
181	0x27a9	0.02992
182	0xa85e	-0.03412
183	0x2846	0.0334
184	0xaaf3	-0.0543
185	0x2baa	0.05988
186	0x9fcb	-0.00761
187	0xa689	-0.02553
188	0x2dad	0.0887
189	0x268d	0.02559
190	0x287d	0.03506
191	0xab85	-0.05875
192	0xa76b	-0.02898
193	0x2c92	0.0714
194	0xacce	-0.0751
195	0xad6c	-0.0847
196	0x2d4c	0.08276
197	0x2cfb	0.0778
198	0xa844	-0.03333
199	0xa80f	-0.0317
200	0x28bc	0.037
201	0x1d3b	0.005108
202	0x2cf2	0.0773
203	0x27b3	0.03008
204	0x273f	0.0283
205	0xaa85	-0.05093
206	0xac01	-0.06256
207	0x9c7e	-0.004387
208	0xac31	-0.0655
209	0x2730	0.02808
210	0x2c28	0.06494
211	0xa46d	-0.01729
212	0xa96f	-0.04245
213	0x2daa	0.0885
214	0x2c24	0.0647
215	0xacea	-0.0768
216	0x2bd3	0.06113
217	0x226b	0.012535
218	0xa9f5	-0.04654
219	0x9c06	-0.00393
220	0xac11	-0.06354
221	0x2481	0.0176
222	0xa5f9	-0.02333
223	0xa0bb	-0.00924
224	0xaa22	-0.0479
225	0x2b7a	0.0584
226	0x2c95	0.0716
227	0xa204	-0.01175
228	0xa1cc	-0.01132
229	0xaa4e	-0.04926
230	0xac9a	-0.0719
231	0xac62	-0.0685
232	0x9cac	-0.004562
233	0x2dc3	0.09
234	0x1985	0.002695
235	0x2c71	0.0694
236	0xad96	-0.0873
237	0x28a6	0.03632
238	0x2a75	0.05045
239	0x210b	0.00985
240	0x2c0f	0.0634
241	0xab5e	-0.05756
242	0x9831	-0.002047
243	0x2cb8	0.0737
244	0xac22	-0.0646
245	0xa84d	-0.0336
246	0xa524	-0.02008
247	0x1ec7	0.00662
248	0x2ba9	0.05984
249	0x2aa9	0.05203
250	0xa831	-0.03275
251	0xa86d	-0.03458
252	0x264b	0.02458
253	0xac75	-0.06964
254	0x2528	0.02014
255	0xa53b	-0.02043

model_9/conv2d_76/Conv2D f2 [96, 3, 3, 64]
0	0x2fe4	0.1233
1	0x2dec	0.0925
2	0x3106	0.157
3	0xa911	-0.03958
4	0xaef1	-0.10846
5	0x28cf	0.03757
6	0x2fe9	0.1236
7	0x9a8a	-0.003193
8	0x31ea	0.1848
9	0x2552	0.02078
10	0x2e08	0.09424
11	0xb0a5	-0.1451
12	0xae07	-0.0942
13	0x288d	0.03555
14	0xa2b4	-0.01309
15	0x2e6e	0.10046
16	0x2262	0.01247
17	0xacc0	-0.0742
18	0x2d3a	0.08167
19	0xa22d	-0.01206
20	0xb004	-0.1255
21	0x1e70	0.006287
22	0x300a	0.1262
23	0x2cf3	0.07733
24	0xa901	-0.0391
25	0xaddd	-0.0916
26	0x222e	0.01207
27	0x2c6e	0.0692
28	0x30fb	0.1556
29	0xa893	-0.03574
30	0x2ecf	0.1064
31	0xad28	-0.08057
32	0xaec5	-0.1058
33	0xa64d	-0.02461
34	0x315d	0.1676
35	0xad8a	-0.08655
36	0xab9c	-0.05945
37	0x3062	0.137
38	0xad2a	-0.0807
39	0x2afb	0.05453
40	0xaf2e	-0.1122
41	0x3048	0.1338
42	0xb093	-0.143
43	0xafd2	-0.1222
44	0xaf53	-0.11444
45	0x2e5b	0.0993
46	0x2acd	0.05313
47	0xaf9a	-0.1188
48	0xb0c3	-0.1488
49	0x30e6	0.1531
50	0x2e3c	0.0974
51	0x3087	0.1415
52	0x1c0e	0.00396
53	0x29be	0.04486
54	0x3019	0.128
55	0xb10d	-0.1578
56	0x27c6	0.03036
57	0x1a8f	0.003202
58	0x30f8	0.1553
59	0xb0ed	-0.1539
60	0x2ef0	0.1084
61	0x301a	0.1282
62	0x3086	0.1414
63	0x2e17	0.09515
64	0xacf8	-0.07764
65	0x2999	0.04373
66	0x2e67	0.10004
67	0x2fdd	0.12286
68	0xa832	-0.03278
69	0x3086	0.1414
70	0xaf96	-0.1185
71	0x2ed9	0.107
72	0xaca9	-0.0728
73	0x2eac	0.10425
74	0xa4e8	-0.01917
75	0xafb9	-0.12067
76	0x2b62	0.05768
77	0x2a2d	0.04825
78	0xaeb6	-0.10486
79	0x2c60	0.06836
80	0x2a7e	0.05072
81	0xad36	-0.0814
82	0x2c86	0.0707
83	0x303a	0.1321
84	0x2fca	0.1217
85	0xb178	-0.1709
86	0xb016	-0.1277
87	0x2c03	0.0627
88	0xb177	-0.1708
89	0x26cd	0.02657
90	0xb15b	-0.1674
91	0x8953	-0.0001625
92	0xa232	-0.0121
93	0xa949	-0.0413
94	0x2da6	0.08826
95	0x24ab	0.01823
96	0xa0a3	-0.009056
97	0x2678	0.02527
98	0x2c87	0.07074
99	0x2976	0.04266
100	0xb113	-0.1586
101	0x305b	0.1361
102	0xad56	-0.0834
103	0xaf16	-0.1107
104	0xae01	-0.0938
105	0xadb5	-0.0892
106	0x2e30	0.0967
107	0x2fb8	0.1206
108	0x2df6	0.09314
109	0xb1fb	-0.1869
110	0xb1e8	-0.1846
111	0x3182	0.1721
112	0xafc5	-0.1214
113	0x9c7a	-0.00437
114	0xa71a	-0.02774
115	0x2c88	0.0708
116	0x3220	0.1914
117	0x2569	0.02113
118	0x2590	0.02173
119	0x2a7b	0.05063
120	0x26d3	0.02666
121	0x3130	0.1621
122	0x988c	-0.00222
123	0xb08f	-0.1425
124	0x2fb6	0.1205
125	0xad49	-0.0826
126	0xac0f	-0.0634
127	0xaf54	-0.1145
128	0xa25a	-0.012405
129	0x2e87	0.102
130	0x2e62	0.09973
131	0x2908	0.0393
132	0xb04a	-0.134
133	0x2033	0.0082
134	0xa8c4	-0.03723
135	0x308e	0.1423
136	0xaa4f	-0.0493
137	0x17f9	0.001946
138	0xa5bf	-0.02245
139	0x2ef3	0.1086
140	0xb2a4	-0.2075
141	0xae15	-0.09503
142	0x9480	-0.001099
143	0xa92e	-0.04047
144	0xa753	-0.02861
145	0x2f79	0.11676
146	0xb2db	-0.2142
147	0xa495	-0.0179
148	0x3035	0.1315
149	0x30f9	0.1554
150	0xa368	-0.014465
151	0xaa55	-0.04947
152	0x305f	0.1366
153	0xae2e	-0.09656
154	0x2fdd	0.12286
155	0xb037	-0.1317
156	0x311e	0.1599
157	0xafb7	-0.12054
158	0xb250	-0.1973
159	0x300f	0.1268
160	0xaf5c	-0.115
161	0x2ea7	0.10394
162	0x281a	0.03204
163	0xb122	-0.1604
164	0xa8f5	-0.03873
165	0x2f47	0.1137
166	0x2c7e	0.0702
167	0xb084	-0.1411
168	0x30a4	0.145
169	0xae7e	-0.10144
170	0xae26	-0.09607
171	0xb129	-0.1613
172	0x2c0a	0.0631
173	0x2b5d	0.05753
174	0xaca2	-0.0724
175	0x2b6b	0.05795
176	0x2da1	0.08795
177	0xac36	-0.0658
178	0xac8c	-0.07104
179	0xb1d9	-0.1827
180	0x2709	0.02748
181	0xb2c3	-0.2113
182	0x2926	0.04022
183	0xa758	-0.02869
184	0x322d	0.193
185	0xb112	-0.1584
186	0xadc7	-0.0903
187	0xb1a6	-0.1765
188	0xadf0	-0.0928
189	0x3053	0.1351
190	0x30c8	0.1494
191	0xa78f	-0.02953
192	0xa9e8	-0.04614
193	0xae71	-0.10065
194	0x2bce	0.06097
195	0x2e0d	0.09454
196	0x30dc	0.1519
197	0xa956	-0.0417
198	0x29b0	0.04443
199	0xab74	-0.05823
200	0x3000	0.125
201	0xae8c	-0.1023
202	0xb0d3	-0.1508
203	0xaca2	-0.0724
204	0xaed6	-0.1068
205	0xa337	-0.01409
206	0x3077	0.1395
207	0xaa2f	-0.0483
208	0xa969	-0.04227
209	0x3015	0.1276
210	0xaf44	-0.1135
211	0x2f40	0.1133
212	0xac97	-0.0717
213	0xa609	-0.02357
214	0x29b4	0.04456
215	0x2923	0.04013
216	0x2fbb	0.1208
217	0xa821	-0.03226
218	0x2c9c	0.072
219	0x2d6e	0.08484
220	0xac5d	-0.0682
221	0xb0bd	-0.1481
222	0x2a87	0.051
223	0xa354	-0.01431
224	0x3212	0.1897
225	0xaed3	-0.1066
226	0x2bf3	0.0621
227	0xb24c	-0.1968
228	0xaf57	-0.1147
229	0xa787	-0.0294
230	0x2253	0.01235
231	0xa4ea	-0.0192
232	0xb029	-0.13
233	0x2cf9	0.0777
234	0x3133	0.1625
235	0xafa4	-0.1194
236	0x30c5	0.149
237	0x9b9d	-0.003717
238	0x2d02	0.07825
239	0x2c76	0.0697
240	0x2e6f	0.1005
241	0x3176	0.1707
242	0x2b87	0.0588
243	0x309e	0.1443
244	0x1d87	0.005398
245	0xa1d7	-0.011406
246	0xad8d	-0.08673
247	0xb19e	-0.1755
248	0x29b6	0.04462
249	0xa679	-0.02528
250	0x2d62	0.0841
251	0x2ce2	0.0763
252	0xac66	-0.0687
253	0x3034	0.1313
254	0x2fe4	0.1233
255	0x306f	0.1385

model_9/conv2d_77/Conv2D f2 [128, 3, 3, 96]
0	0xac9b	-0.07196
1	0xa44d	-0.0168
2	0x2a29	0.04813
3	0x2cb6	0.0736
4	0x28f4	0.0387
5	0xafca	-0.1217
6	0x8c3d	-0.0002587
7	0xac6a	-0.069
8	0xad3b	-0.0817
9	0x18a6	0.00227
10	0x2143	0.01028
11	0x26c2	0.0264
12	0x1dad	0.005543
13	0xa57d	-0.02144
14	0x242f	0.01634
15	0x272c	0.02802
16	0xac72	-0.06946
17	0xa317	-0.01385
18	0xae7b	-0.10126
19	0x2d5d	0.0838
20	0xac08	-0.063
21	0x98ec	-0.002403
22	0xabb2	-0.06012
23	0x2b93	0.05917
24	0x94cd	-0.001172
25	0xa7d7	-0.03062
26	0xad28	-0.08057
27	0x29c5	0.04507
28	0xadb3	-0.08905
29	0x1821	0.002016
30	0xa096	-0.00896
31	0x2d3f	0.082
32	0x2839	0.033
33	0xb031	-0.131
34	0x27ac	0.02997
35	0xadae	-0.08875
36	0x2ecd	0.10626
37	0xa4ce	-0.01877
38	0x2ddb	0.0915
39	0x2f0d	0.11017
40	0xa8c6	-0.0373
41	0xa94c	-0.04138
42	0xa882	-0.03522
43	0xae76	-0.10095
44	0xa3a7	-0.014946
45	0x2d02	0.07825
46	0xa7f1	-0.03102
47	0xab2e	-0.0561
48	0xad7c	-0.0857
49	0x9cbc	-0.004623
50	0x2875	0.03482
51	0x2450	0.01685
52	0xa859	-0.03397
53	0xa067	-0.0086
54	0x2198	0.010925
55	0x2bec	0.0619
56	0x2d72	0.0851
57	0xaca2	-0.0724
58	0xa9a7	-0.04416
59	0xacca	-0.0748
60	0xaecd	-0.10626
61	0x2d9f	0.0878
62	0xaf71	-0.1163
63	0xa899	-0.03592
64	0xa97a	-0.0428
65	0xa4d4	-0.01886
66	0xa814	-0.03186
67	0x2aec	0.05408
68	0xaefc	-0.10913
69	0x23d1	0.01527
70	0xa913	-0.03964
71	0x2cd3	0.0754
72	0x20be	0.00926
73	0xaa1f	-0.04782
74	0xad97	-0.08734
75	0xae2c	-0.09644
76	0x284c	0.03357
77	0xad83	-0.0861
78	0xa0cc	-0.00937
79	0xaaf2	-0.05426
80	0x1d89	0.005405
81	0x9c03	-0.003918
82	0x2c8f	0.0712
83	0x2af5	0.05435
84	0xa8aa	-0.03644
85	0x2a87	0.051
86	0xa9ae	-0.04437
87	0xae46	-0.098
88	0x2e07	0.0942
89	0xa2a0	-0.01294
90	0xaba6	-0.05975
91	0x2e59	0.0992
92	0x25b6	0.02231
93	0x2dbb	0.08954
94	0xaa68	-0.05005
95	0x1cae	0.00457
96	0x2a2f	0.0483
97	0xadd1	-0.0909
98	0xad42	-0.08215
99	0xa252	-0.012344
100	0x9c91	-0.00446
101	0x2d56	0.0834
102	0xac3b	-0.0661
103	0x19be	0.002804
104	0x1fb1	0.00751
105	0x2a2d	0.04825
106	0xa83f	-0.03317
107	0x2d01	0.0782
108	0x2bf2	0.06207
109	0xad43	-0.0822
110	0xa873	-0.03476
111	0x9305	-0.000857
112	0x299e	0.04388
113	0xaccc	-0.07495
114	0x2fad	0.11993
115	0x2bdd	0.06143
116	0x271e	0.0278
117	0xadf8	-0.09326
118	0x2d60	0.084
119	0x3094	0.1431
120	0xa9cc	-0.0453
121	0x2b1d	0.05557
122	0x2ea6	0.1039
123	0xaef2	-0.1085
124	0x9a4c	-0.003075
125	0x20f1	0.00965
126	0xa912	-0.0396
127	0xa0e4	-0.00955
128	0x2c70	0.06934
129	0xafb9	-0.12067
130	0x2e23	0.0959
131	0x2bdf	0.0615
132	0x2b0b	0.05502
133	0x2d3a	0.08167
134	0x9efb	-0.006817
135	0x26c1	0.02638
136	0x2363	0.01443
137	0x2a35	0.0485
138	0xab4c	-0.057
139	0xade1	-0.09186
140	0x8444	-6.51e-05
141	0x2ee4	0.10767
142	0xa9a0	-0.04395
143	0xa9a7	-0.04416
144	0xa905	-0.0392
145	0x2a0b	0.0472
146	0xa01e	-0.00804
147	0x2c7b	0.07
148	0x9f62	-0.00721
149	0x3010	0.127
150	0xa551	-0.02077
151	0x2de7	0.0922
152	0xab03	-0.05478
153	0xacb0	-0.07324
154	0xac26	-0.0648
155	0xa8fb	-0.0389
156	0x9fdc	-0.007675
157	0xaf39	-0.11285
158	0xa889	-0.03543
159	0xa8fa	-0.03888
160	0x2ccc	0.07495
161	0xa5d3	-0.02275
162	0xa3dd	-0.01536
163	0xa71b	-0.02776
164	0xab5a	-0.05743
165	0xa8ad	-0.03653
166	0x2e9e	0.1034
167	0x2ea7	0.10394
168	0x9c0a	-0.003944
169	0x2edc	0.1072
170	0x2af4	0.05432
171	0x2f5c	0.115
172	0x1fc0	0.00757
173	0x2711	0.0276
174	0xad69	-0.08453
175	0xae4c	-0.0984
176	0x2898	0.0359
177	0x2c8c	0.07104
178	0x1f0f	0.006893
179	0x20da	0.009476
180	0xaef3	-0.1086
181	0x2e8b	0.10223
182	0xa942	-0.04108
183	0xadba	-0.0895
184	0x22a7	0.01299
185	0x2f38	0.1128
186	0x2669	0.02504
187	0xa804	-0.03137
188	0x2a8e	0.0512
189	0x1644	0.00153
190	0x2463	0.01714
191	0x2aa5	0.0519
192	0x255a	0.0209
193	0xadc9	-0.0904
194	0x2e24	0.09595
195	0x20e2	0.00954
196	0x240d	0.01582
197	0x2daf	0.0888
198	0xa7b3	-0.03008
199	0x2923	0.04013
200	0xa68b	-0.02556
201	0x2809	0.03152
202	0xac8c	-0.07104
203	0x2a8a	0.0511
204	0x2ea0	0.1035
205	0xa62a	-0.02408
206	0xab74	-0.05823
207	0x2dbd	0.08966
208	0x241d	0.01607
209	0xae0f	-0.09467
210	0xac7a	-0.06995
211	0xa17c	-0.01071
212	0xad25	-0.0804
213	0xaf97	-0.1186
214	0x2ecf	0.1064
215	0x2877	0.03488
216	0x2a38	0.04858
217	0xa77a	-0.0292
218	0xa47d	-0.01753
219	0xacd4	-0.07544
220	0xa2c1	-0.01319
221	0x2b07	0.0549
222	0x2c62	0.0685
223	0xad8e	-0.0868
224	0x2ba2	0.05963
225	0xa7eb	-0.03093
226	0x9c1c	-0.004013
227	0x1cae	0.00457
228	0x2a30	0.04834
229	0x2ce8	0.07666
230	0x2bbc	0.06042
231	0xa9f9	-0.04666
232	0xb071	-0.1388
233	0x2b86	0.05878
234	0x29b8	0.04468
235	0xad82	-0.08606
236	0x9ed8	-0.006683
237	0xa8df	-0.03806
238	0xa761	-0.02882
239	0xa79b	-0.02971
240	0x2893	0.03574
241	0xaba8	-0.0598
242	0xad9c	-0.08765
243	0x281c	0.0321
244	0x9df9	-0.005833
245	0x2cd1	0.07526
246	0xa509	-0.01967
247	0x2e0d	0.09454
248	0x2e26	0.09607
249	0xb018	-0.1279
250	0xac26	-0.0648
251	0xaa15	-0.04752
252	0xacde	-0.07605
253	0xacaf	-0.0732
254	0x9cbe	-0.00463
255	0x2d04	0.07837
