model/IEMOCAP_3.0s_Segmented_fuse_focal_int8.tflite (tflite, 491552 bytes, 18 tensors)

dense_9/bias f4 [6]
000000 b9 a3 72 bb 05 8b 15 bc 17 ce f1 3b f4 c7 4d 3a
       -0.0037023856 -0.009127383 0.007379304 0.0007849925
000010 db 2b c3 3b 11 39 bb bc
       0.0059561557 -0.02285436

sequential/model_9/re_lu_72/Relu;sequential/model_9/batch_normalization_72/FusedBatchNormV3;conv2d_72/bias;sequential/model_9/conv2d_72/BiasAdd;sequential/model_9/conv2d_74/Conv2D;sequential/model_9/conv2d_72/Conv2D f4 [32]
000000 4d 6a 81 3c 98 50 7a bc d4 b0 48 bb 1e f3 8e 3c
       0.015797758 -0.015278004 -0.0030622976 0.017449912
000010 93 c1 95 bc 2e db dd 3b e2 81 75 bc 5f 7f 72 3c
       -0.01828078 0.006770513 -0.01498458 0.014800875
000020 03 94 97 3c f8 e5 50 bc 0f 8e 14 3c 4d 3d dc 3c
       0.018503195 -0.012750141 0.0090670725 0.0268847
000030 cc a5 c6 ba 2a 74 fc bb d1 db 65 3c 9a 2a 51 bc
       -0.0015155612 -0.0077042775 0.014029459 -0.012766505
000040 4d d4 af 3c 14 d3 de 3b 03 ea 6c 3d 5c 32 b6 3c
       0.021463538 0.006800065 0.05784036 0.02224081
000050 f1 c9 d0 bb d6 2a ad 3c 83 21 54 3b 69 ac 2c 3c
       -0.0063717295 0.02113859 0.0032368607 0.010539153
000060 e0 29 d9 ba d0 a1 05 3d b2 b2 87 3c e4 d0 15 bc
       -0.0016568266 0.03262502 0.0165647 -0.009144042
000070 c5 6d fc bc f9 0d 3b bc fe 39 ec 3c 0a 5b ee 3c
       -0.030814061 -0.011416906 0.028836247 0.029096145

sequential/model_9/re_lu_73/Relu;sequential/model_9/batch_normalization_73/FusedBatchNormV3;conv2d_73/bias;sequential/model_9/conv2d_73/BiasAdd;sequential/model_9/conv2d_74/Conv2D;sequential/model_9/conv2d_73/Conv2D f4 [32]
000000 30 b7 11 bd 42 8d 21 bc f3 97 00 bd d1 c4 bc 3c
       -0.03557509 -0.009860339 -0.03139491 0.023043068
000010 e1 61 1f bd 36 82 14 3d 85 d8 1f bd 27 77 05 bd
       -0.038911704 0.03625699 -0.03902485 -0.032584336
000020 df 35 76 bd ef a1 02 bd 51 bc 76 3d 04 6c cb 3d
       -0.06010997 -0.031892713 0.060238186 0.09932712
000030 e8 9c db bc 3c 01 f9 bc 9a 9d 86 bd 9e c7 8f 3d
       -0.026808217 -0.030396096 -0.06573029 0.07020496
000040 87 e2 a3 3d 48 ec 61 3d 6c a6 0d 3d 8f 3d 60 3d
       0.08002191 0.055156976 0.03458254 0.054746207
000050 c3 83 5f 3d 22 3b 72 3d 08 a6 41 3d 90 39 1f bc
       0.054569017 0.059138425 0.04727748 -0.009718314
000060 38 ad ae bc ee 2d 39 bc a9 62 5f 3c 5a ea 27 3d
       -0.021322832 -0.011302454 0.013634362 0.04099498
000070 87 21 3b 3d 32 1c ea bc 2c 3d 6c 3c cb 19 90 3d
       0.04568627 -0.028577898 0.014418881 0.070361696

sequential/model_9/re_lu_74/Relu;sequential/model_9/batch_normalization_74/FusedBatchNormV3;conv2d_74/bias;sequential/model_9/conv2d_74/BiasAdd;sequential/model_9/conv2d_74/Conv2D f4 [32]
000000 3d 33 6e 3c d1 fc 5b 3c f8 62 84 3c b8 c2 be b9
       0.014538583 0.013426975 0.016160473 -0.000363847
000010 02 34 89 3c 4b cf 82 3b 64 09 e1 3c cf a0 a8 3c
       0.016748432 0.0039919964 0.027470298 0.020584492
000020 68 0d 45 3c 00 ec cb 3c 47 e5 9e 3b c2 9b ff bc
       0.012027122 0.024892807 0.0048491093 -0.0312022
000030 a3 31 0d 3d 79 fc c6 3b 44 ce 72 3c ed 0a c0 3c
       0.034471165 0.0060725776 0.014819685 0.02344271
000040 41 46 6f bb ff 5e a6 3c 6e 1c aa bc 21 b1 de bc
       -0.003651038 0.02030897 -0.02076551 -0.027184071
000050 d6 76 8c 3c a9 db db 3b 63 b1 08 3d fe d0 fb b9
       0.01714651 0.006709535 0.033372294 -0.00048030162
000060 0c b1 cb 3c 1d e9 1d bc 2a b0 b9 3c 4d 87 60 3c
       0.024864696 -0.009638098 0.02266701 0.013704133
000070 9c 99 20 3d 14 88 82 3b 44 87 bb 3c 50 89 00 3d
       0.039208993 0.003983507 0.022891648 0.03138095

sequential/model_9/batch_normalization_75/FusedBatchNormV3 f4 [64]
000000 02 03 ce 3e 17 d9 86 3f a8 53 14 3f ae 4f c2 3e
       0.4023667 1.0535 0.5794015 0.37951416
000010 d4 ad dc 3e 7d 0c 89 3e 9c fb ff 3e 26 99 78 3d
       0.4310137 0.2676734 0.4999665 0.06069293
000020 c2 96 15 be c0 4c 3c 3e a9 01 a2 3e 82 70 b7 3e
       -0.14608291 0.18388653 0.31641892 0.35828024
000030 f0 82 02 be c3 c2 ea 3e db 41 8e 3e b5 0c 30 be
       -0.12745261 0.45851716 0.2778462 -0.17192347
000040 b6 61 57 3f ff 66 11 3f dc 11 b3 be 65 86 d2 3e
       0.8413347 0.56797785 -0.34974563 0.4111816
000050 ba c0 9e 3e 58 db 57 be 82 8c 9a bf 72 81 1f 3e
       0.31006414 -0.21079767 -1.207413 0.15576723
000060 d0 ec 5f 3f e4 90 65 be ac df cd 3e b1 d8 23 3f
       0.8747072 -0.22418553 0.4020971 0.6400252
000070 9d 45 31 3e b0 bc 38 be 11 73 08 3f 14 81 2a 3f
       0.17311712 -0.18040729 0.5330058 0.6660321
000080 eb 70 d8 3e d4 93 c3 3e 6f 61 bd bd d2 5a fc be
       0.4227365 0.3819872 -0.092470996 -0.4928804
000090 c7 12 73 be ec f5 8d bd 28 48 e0 3e a4 1a cd bc
       -0.23737632 -0.069316715 0.4380505 -0.025037117
0000a0 95 f3 0b 3f 57 30 ad 3e b1 60 8c bc 7f 3c f7 3e
       0.5466855 0.33825943 -0.01713595 0.48288342
0000b0 d0 9c bd 3e ba 95 ba 3e 3b 38 26 3f a3 a1 91 3e
       0.370337 0.36442357 0.6492955 0.28443632
0000c0 2d 2b 76 3e 7f 19 82 3d b5 c6 da 3e 14 6a e1 bd
       0.24039908 0.06352519 0.42729726 -0.11006561
0000d0 c3 37 06 3e f0 e8 fd 3d 65 75 87 bd 23 33 74 be
       0.13107209 0.12397945 -0.06614188 -0.23847632
0000e0 fe 96 16 3f 17 f2 43 3f d6 d0 46 bf d4 71 fd 3d
       0.58824146 0.76541275 -0.7766241 0.123752266
0000f0 b9 1c cd be 7a 10 f6 3d db 07 8e be cd 4f 3a bf
       -0.40060976 0.120148614 -0.27740368 -0.72778016

sequential/model_9/batch_normalization_76/FusedBatchNormV3 f4 [96]
000000 03 9f 82 bf 3f df 80 3f 69 c9 26 3f e9 eb 3e 3f
       -1.0204777 1.0068129 0.6515108 0.7457872
000010 a5 80 30 3f 53 15 6a 3e d8 c2 b4 bd 52 1f a7 3e
       0.68946296 0.22859697 -0.08826226 0.32641083
000020 cb 3c 1c bf 8f 93 9d 3f a7 52 51 3f be 2a f2 be
       -0.6103026 1.2310656 0.8176674 -0.47298235
000030 48 c8 ff be fc 2c a7 3f 6f 72 ba 3f 4e 01 ce be
       -0.4995749 1.3060603 1.4566172 -0.4023537
000040 9a ad 71 bf a3 23 07 3f b2 aa bf 3e ee 61 d4 3e
       -0.9440552 0.5278875 0.37434918 0.41480964
000050 e9 14 0c 40 2c 25 2b 3f 61 b2 53 bf 0e 5b 69 3f
       2.1887763 0.66853595 -0.8269406 0.91154563
000060 38 c7 a3 3e 83 72 9b 3f e4 4f 82 3f 2c fb 48 3f
       0.3198793 1.2144321 1.0180631 0.7850826
000070 d4 3e 68 3f 40 3a a9 3f 73 54 af bd 25 86 0a bf
       0.9072087 1.3220901 -0.08561029 -0.5411094
000080 c8 b8 ed 3e 76 ef 2e 3f 54 80 aa 3e 42 58 86 bf
       0.4643004 0.6833414 0.33301032 -1.0495684
000090 03 83 48 3f 24 8e 8f 3f 51 c1 8e 3f 6d be bc 3d
       0.7832491 1.1215253 1.1152745 0.09216008
0000a0 7d f1 9a 3e 12 aa 6e 3f 5e e0 6f be f3 9b 2c bf
       0.30262366 0.93228257 -0.23425433 -0.6742546
0000b0 c2 13 a9 3f f2 3f e7 3f e9 53 36 3f 91 2c 63 bf
       1.3209155 1.806639 0.71221787 -0.8873988
0000c0 11 48 a5 be c6 ef 55 be b6 48 e4 bd 3d d4 da be
       -0.32281545 -0.20892248 -0.11146681 -0.4274005
0000d0 c4 45 80 be cd 71 24 3f 40 1f 1c 3f 36 5e 18 3f
       -0.25053227 0.64236146 0.60985184 0.59518754
0000e0 de 09 9d 3f 05 95 57 3f 8f 02 cb be b6 7c 13 3e
       1.2268636 0.8421176 -0.3965039 0.14403042
0000f0 38 40 18 bf 35 0e 11 3f 53 bc ab be cb ec 9b be
       -0.5947299 0.56662303 -0.33542117 -0.30454096
000100 e5 98 7d 3f 0e c2 7a 3e 99 27 ca 3e 90 e9 02 3f
       0.99061424 0.24488088 0.39483336 0.5113764
000110 e0 f5 a4 be a0 19 04 bf 23 51 cd 3e 96 9a 9a 3d
       -0.32218838 -0.516016 0.40100965 0.07549016
000120 96 78 e3 bc b4 2e c2 bf 04 64 f4 3e a6 72 13 bf
       -0.02776746 -1.5170503 0.47732556 -0.57596815
000130 65 c7 2c 3f 88 ef 6d 3e 0b e6 15 3f 82 cd bb 3c
       0.6749175 0.23235905 0.5855414 0.022925142
000140 1c 28 25 bf 56 31 e0 3e 2a 2d c7 be e1 75 80 3f
       -0.6451433 0.4378764 -0.38901645 1.0035974
000150 86 3c 39 3f 56 15 d4 be 3e e7 33 3f e3 c4 00 3f
       0.72357976 -0.41422528 0.7027472 0.50300425
000160 5a ad 66 3f bc d8 1d 3f 17 34 a5 be 1c 8a 2b 3f
       0.90108263 0.61658835 -0.32266304 0.67007613
000170 81 70 5c bf d1 0a d7 bf bd 6e 76 3e c5 87 22 3f
       -0.8610917 -1.6800176 0.24065681 0.6348842

sequential/model_9/batch_normalization_77/FusedBatchNormV3 f4 [128]
000000 ff f0 27 bf 9f ae be 3f 24 9b 85 bf 02 79 8e bf
       -0.65602106 1.489704 -1.043797 -1.1130679
000010 d0 5e 52 3f a4 41 67 3f 15 c8 69 bf 77 7f 9d 3d
       0.8217592 0.90334535 -0.91320926 0.076903276
000020 80 78 a4 bd b6 b1 cb 3f 81 34 e9 bf c7 7b 6f 3e
       -0.08030796 1.5913608 -1.8219148 0.23387061
000030 aa 4f 97 3f 4d de c7 3e 95 c8 1f 3f 1e 6f 49 3f
       1.1821187 0.3903679 0.6241544 0.78685176
000040 b6 6c 27 3f 01 92 ad be e6 71 53 bf 52 4a e4 3e
       0.65400255 -0.33900455 -0.8259567 0.44587952
000050 eb ba 01 bf bd dd f0 3e f4 6b 30 3f cd dd ae 3e
       -0.5067584 0.47044173 0.68914723 0.34153596
000060 a0 99 5c bf 57 6e 65 3e 05 77 16 3e a7 e7 5c bf
       -0.86171913 0.22405373 0.1469384 -0.86290973
000070 73 81 ec 3f ae 99 99 3f 14 a5 df 3d e2 45 cd be
       1.8477005 1.2000024 0.10920158 -0.4009238
000080 43 55 cf 3e 18 68 01 bf 72 5a b5 3f 52 99 2b 3f
       0.40494737 -0.5054946 1.4168227 0.67030823
000090 29 5f ab 3f 28 ae b6 3e 5a 65 06 40 a9 f1 07 40
       1.3388416 0.35679746 2.099936 2.1241248
0000a0 d8 48 24 bf e7 57 04 be 27 85 0e 3f 2e 86 ac 3d
       -0.6417365 -0.12924157 0.55671924 0.0842403
0000b0 27 57 db 3e f1 de 94 3e 96 01 2c 3e 66 85 de 3f
       0.4283993 0.2907634 0.1679748 1.738446
0000c0 2e 92 dc 3e 45 96 98 3e 9e 33 ca 3d d8 43 1f 3e
       0.43080276 0.29802147 0.098731264 0.15553224
0000d0 e8 cc 03 be 27 2a 40 be cb 70 f3 be 02 b9 11 bd
       -0.12871134 -0.1876608 -0.47546992 -0.035576828
0000e0 07 f1 de 3f 95 5c 27 bf 96 cb ab 3e 9b 57 22 40
       1.7417306 -0.65375644 0.3355376 2.536597
0000f0 d7 6e 35 3f f0 b5 89 bd 78 c8 42 bf d9 26 d9 3e
       0.70872253 -0.06724155 -0.7608714 0.4241245
000100 e4 7c be bf d9 6c 85 3e 8c ed da 3f fa 88 87 bf
       -1.4881864 0.26059607 1.7103744 -1.0588677
000110 e4 a3 5e bf 9a 28 55 3f a4 27 17 3e 9a ce cc be
       -0.8696883 0.8326508 0.14761215 -0.40001374
000120 cc 6f 74 bd 7c a5 70 3d b3 c2 9a 3f 77 c0 a7 3d
       -0.05967693 0.05875157 1.2090667 0.08191007
000130 7f 0b 9d 3d 85 43 3c 3f 9f 18 76 3f 81 0a 9f 3d
       0.07668208 0.73540527 0.9613132 0.07765675
000140 69 65 2c bf a7 f5 d6 be c9 c8 a0 3f 9e e2 6d 3f
       -0.6734224 -0.41984293 1.2561275 0.92923915
000150 c2 ab b9 be 01 0a 70 bd e1 ef 21 3f 55 0f 3e 3f
       -0.36263853 -0.05860329 0.6325665 0.74242145
000160 e1 1f ee bd d9 08 c5 3f c0 f1 0b ba 99 29 f0 3d
       -0.11627174 1.5393325 -0.0005338453 0.11726684
000170 25 e0 4a be 7e c0 0f bf 94 8a 38 3f a9 ae 9c 3f
       -0.19812067 -0.56153095 0.72086453 1.2240802
000180 ba e1 83 3f b4 55 ba 3f 60 df 5f 3e 25 a1 b4 3e
       1.0303261 1.4557405 0.21862555 0.35279194
000190 3e ce 71 3f 70 0f a0 3f b5 7c b1 3f fc 1d 79 bf
       0.94455326 1.2504711 1.3866183 -0.9731138
0001a0 62 5a 5f 3e 26 9f 23 3f 93 be 7d be 6a 24 7e 3e
       0.21811822 0.63914716 -0.2477973 0.24818578
0001b0 a1 89 69 be 3b 47 8e 3f 3e 07 78 3f 5e bb 3a bf
       -0.22806408 1.1115488 0.9688605 -0.7294215
0001c0 be 93 05 bf a2 ee 16 3f 52 b4 68 bf e9 db 0e be
       -0.5217856 0.58957875 -0.90900147 -0.13951077
0001d0 e1 9c 32 3f ec b4 a1 bf 0f f8 af be 0c e2 13 40
       0.6977063 -1.2633338 -0.3436894 2.3106718
0001e0 0c cb 3e bc 48 9e 45 3f 94 e1 3f 3f 40 44 e6 b9
       -0.01164509 0.77194643 0.7495358 -0.0004391987
0001f0 a4 64 aa 3e 74 12 2c bf 18 99 4a 3f 35 c8 09 3e
       0.33279908 -0.6721566 0.7913985 0.13455279

sequential/model_9/batch_normalization_78/FusedBatchNormV3 f4 [160]
000000 6b 3a a5 bf 09 d2 65 3f 75 9c e6 bf d4 73 68 bf
       -1.2908453 0.89773613 -1.8016497 -0.9080174
000010 4f 6f b3 be 65 d7 ad 3f 9d 1f 17 bf 77 be 01 bf
       -0.3504586 1.3581358 -0.59032613 -0.5068125
000020 ed 0d 69 be 19 33 37 3f c9 54 64 bf 9c a9 ed be
       -0.22759219 0.71562344 -0.8919187 -0.46418464
000030 58 ed 2d bf e2 f6 93 3f 04 f7 03 3e 94 fa 2f 3f
       -0.6794028 1.1559718 0.12887198 0.68741727
000040 1e c9 de be dc 89 65 bf 10 2a 5d bd fb 13 83 bf
       -0.43512815 -0.8966348 -0.053995192 -1.0240473
000050 bc 22 ce be 8e ac 6e bf f0 1a 6e be 62 f8 e0 3e
       -0.40260875 -0.9323205 -0.23252463 0.439395
000060 e8 56 0b bd 7d b4 95 3d 11 8a df be f6 60 72 3f
       -0.034018427 0.07309816 -0.43660024 0.946792
000070 a1 5d 54 3f 57 75 2d bf de f2 70 3f 44 47 82 bf
       0.82955366 -0.6775717 0.94120586 -1.0177999
000080 9a d4 c2 3e 2c 0f d8 be cc 54 ef 3d bc c9 32 bf
       0.38052827 -0.42199075 0.116860956 -0.6983907
000090 70 82 3c be 99 e8 cc be 8c b6 c6 bf 2a 49 9e be
       -0.18409133 -0.40021208 -1.5524459 -0.30915195
0000a0 97 f4 8f bf be ee f4 bf 50 d1 18 bf 68 d8 36 bf
       -1.1246518 -1.9135358 -0.59694386 -0.7142396
0000b0 d4 c8 ab be 28 3a fe 3e 08 32 0b 3c 19 61 20 bf
       -0.33551657 0.49653745 0.008495815 -0.6264816
0000c0 77 b6 c1 be 60 cf a9 ba e6 4a 80 3f da 57 ec 3e
       -0.37834522 -0.0012955479 1.0022857 0.46160775
0000d0 e2 cd 85 3f 09 63 ee be 6d 51 be bf 54 58 71 3f
       1.0453455 -0.46559933 -1.4868599 0.94275403
0000e0 6a 85 2e 3f d6 bf e7 be 00 d4 bc bf 19 22 9c bf
       0.68172324 -0.45263547 -1.4752197 -1.2197906
0000f0 16 4a d8 be ac 60 36 bf 19 d4 d8 bd 0a 18 52 3e
       -0.42244023 -0.7124126 -0.105873294 0.20516983
000100 22 ba 98 bf bd 82 96 3f 39 23 1b be 17 e2 78 3f
       -1.1931803 1.1758648 -0.15150155 0.97219986
000110 ca 73 a9 be b1 c3 73 bf 1f 4d fd be b1 05 ae 3e
       -0.33096153 -0.95220476 -0.494729 0.33988717
000120 1b bf 4d bf 61 8a 8a bf db 97 cd 3d 90 28 a4 bf
       -0.8036973 -1.082348 0.1003873 -1.2824879
000130 0e 32 2a bf e6 8d 60 bd 9f cc 8d bf aa 17 75 bf
       -0.6648263 -0.054822825 -1.107807 -0.95739233
000140 ef 8a 22 bf f4 14 97 bf dc f8 bd bd b6 f8 eb be
       -0.63493246 -1.1803269 -0.09275982 -0.4608819
000150 01 97 a5 3f e2 0a 6b bf a4 5d 50 bf 20 eb fa be
       1.2936708 -0.9181348 -0.81392884 -0.4900751
000160 a4 95 72 3e 40 aa 17 3f 77 db d4 bf c5 80 8c bf
       0.23689896 0.59244156 -1.6629475 -1.0976797
000170 9b a3 f5 3e d6 78 01 be 10 db f3 3e 27 20 4b 3d
       0.47976384 -0.12643752 0.4762807 0.04959121
000180 5a 63 33 bf 0b 45 f0 bf 1b ef 51 be a1 a1 15 bf
       -0.70073473 -1.877107 -0.20501368 -0.5844975
000190 1c 3f 74 3e c2 64 cc bf 0d 72 72 bf ec e2 48 be
       0.238522 -1.5968249 -0.9470528 -0.19617814
0001a0 c9 64 21 3e ee d8 0c bf 33 14 d8 be 92 f4 64 3f
       0.15761103 -0.5501851 -0.4220291 0.89435685
0001b0 24 23 56 3f d7 57 83 bf 18 d3 11 bf 4e 22 c4 3e
       0.8364737 -1.0261182 -0.5696273 0.38307422
0001c0 73 06 96 3e b5 00 b6 bf 91 87 05 3f 25 8f 7e bf
       0.29301795 -1.4218966 0.5215998 -0.9943717
0001d0 5a cc e2 be 05 e6 94 3e 0f e5 ca bf 00 e3 d7 bf
       -0.44296533 0.2908174 -1.5851153 -1.686615
0001e0 16 8d 81 3f 51 53 0d bf 13 49 b1 bf e8 cc 90 bf
       1.0121181 -0.55205256 -1.3850425 -1.1312532
0001f0 9f b2 04 bf fb ee 75 3e d8 2d b2 be 6a 95 43 3d
       -0.51835054 0.24016945 -0.348006 0.047749914
000200 c1 de e8 be 93 2a 0a bf 71 4f 8a bf ec c3 9e 3f
       -0.45482448 -0.53971213 -1.0805494 1.2403541
000210 4b d0 10 3f 8b 3e 0b bf fb f0 08 be bf 84 9f bf
       0.5656783 -0.5439231 -0.13373177 -1.2462386
000220 df 86 c2 be 2e d0 49 3d d0 c5 57 bf 6d 60 a1 bf
       -0.37993523 0.0492708 -0.8428621 -1.2607552
000230 5f 13 9e 3e 52 8a 4e bf 6c a9 67 bf 10 4a b2 be
       0.30874154 -0.8067981 -0.9049289 -0.3482213
000240 9c de 4b be d1 10 db bf 19 56 50 bf 7e 4d cf bf
       -0.19909137 -1.7114507 -0.81381375 -1.6195524
000250 4b 13 13 bf bf 23 26 bf f9 37 c3 be 02 fa 80 be
       -0.57451314 -0.64898294 -0.3812864 -0.2519074
000260 f6 5a 98 be ac aa 1b bf 46 15 d8 be d4 7d 2b bf
       -0.29756898 -0.608073 -0.4220373 -0.66988873
000270 75 4d 07 bf c2 71 67 bd ad f5 d8 3e 42 1e 96 be
       -0.52852565 -0.056504972 0.42374936 -0.2931996

sequential/model_9/batch_normalization_79/FusedBatchNormV3 f4 [320]
000000 c9 ae 02 bf de f5 c8 3e 04 08 af bf f3 8f 7f bf
       -0.5104795 0.39250082 -1.3674321 -0.99829024
000010 2c 5f 71 bf 8b 4e 85 bd 02 16 6d bc 2e 4c 69 be
       -0.94285846 -0.065091215 -0.014470579 -0.22782966
000020 cf e5 2f be d1 80 a5 3d 58 20 51 bf 9d 2c a3 3d
       -0.17177509 0.080812104 -0.8168998 0.07967494
000030 c3 e3 3f be 1d 28 74 bf f6 38 97 bf 41 10 e5 be
       -0.18739228 -0.9537371 -1.1814258 -0.44738963
000040 a1 bf 89 3e 5c c2 81 be 84 0c 51 bf 35 42 1f bf
       0.26904014 -0.25343597 -0.8165972 -0.622104
000050 d2 88 31 bf f1 c1 93 be c0 a2 de be 4e c0 2a bf
       -0.69349396 -0.28858903 -0.43483543 -0.66699684
000060 91 80 47 3d 7a 7b 05 be e6 9f 8a be 93 f3 27 bf
       0.048706595 -0.13035384 -0.27075118 -0.6560604
000070 34 f2 07 3f 45 28 de bc 78 5c 94 bf 6c 71 22 bf
       0.5310395 -0.027118811 -1.1590719 -0.6345432
000080 a2 fe 67 bf 8c 86 7e bf 04 c0 c4 be 00 29 71 be
       -0.90622914 -0.9942405 -0.38427746 -0.23550797
000090 9e d0 ca bd 54 0b e7 be 1e 51 4e bf f3 ef 48 3f
       -0.09903072 -0.4512583 -0.80592525 0.78491133
0000a0 2f 73 ee be a0 51 a4 3e 63 16 43 bf 43 2c 33 be
       -0.46572253 0.32093525 -0.76206034 -0.17497353
0000b0 a9 6c 76 3f 06 94 52 bf e0 14 72 3d 05 10 1a bf
       0.9625955 -0.82257116 0.05910194 -0.60180694
0000c0 64 09 45 3e 40 2a 0a bd d9 a4 14 bf 8c 60 3b bf
       0.19241863 -0.0337317 -0.5806404 -0.73194194
0000d0 90 32 c9 ba 32 71 39 bf da c9 78 bf 70 4f 1f bf
       -0.0015350152 -0.7243835 -0.97183 -0.62230587
0000e0 85 26 87 be aa 91 0f 3e 4e 38 27 be 15 8c 00 bf
       -0.26396576 0.1402041 -0.16330072 -0.5021375
0000f0 69 e5 c8 be f6 d3 e6 bc da b1 2f be 95 4b 22 bf
       -0.39237526 -0.028177243 -0.17157689 -0.6339658
000100 a1 ae 01 3f 29 8f 40 bf 4d a0 9e bf e1 e4 1d bf
       0.5065709 -0.75218445 -1.239267 -0.61677366
000110 5c 38 51 be 34 b2 17 bf b0 79 53 be 0f c0 20 be
       -0.20431656 -0.5925629 -0.20651889 -0.15698265
000120 5b 60 e2 be 08 7d bb bd 07 02 5e bf d7 18 95 bd
       -0.44214138 -0.09154707 -0.86721843 -0.072801284
000130 dd 23 56 bf 5c 50 f7 3e 47 09 83 bf 21 73 50 bf
       -0.83648473 0.48303497 -1.0237206 -0.8142567
000140 97 12 fd be ab e8 d2 be 15 ed 82 be 07 8b a4 3d
       -0.49428245 -0.41193137 -0.25571504 0.0803433
000150 fc 36 2a bf f3 c1 68 bd 37 dd ea be 43 d5 27 bf
       -0.6649015 -0.05682559 -0.458719 -0.65559787
000160 b4 dd a5 be 6b 38 91 bf c3 ba ad 3d 87 a6 15 3e
       -0.3239571 -1.1345342 0.084828876 0.14614306
000170 06 a4 00 3f 1c 49 69 be 1d 5b 99 be 4a a6 bf be
       0.5025028 -0.22781795 -0.29952326 -0.37431556
000180 cb cc 65 be 6c 5d 58 bf 78 0b 3b be e6 c4 ab be
       -0.22441404 -0.8451755 -0.18266094 -0.3354866
000190 1b 21 a7 3a 66 1d 3d 3e 4e 3a 5b 3e 4e 92 88 bf
       0.0012750955 0.18468246 0.2140896 -1.0669649
0001a0 e1 4f 84 3e 96 62 79 be ff 71 00 bf 98 a7 5f bf
       0.25842193 -0.24354014 -0.50173944 -0.873651
0001b0 60 cc 60 be 1d 81 8c be 1f 3e 34 3e 93 e3 10 bf
       -0.21952963 -0.27442256 0.17601822 -0.5659725
0001c0 2d f3 09 bf ce 1f 58 bf 05 ff a0 3e a0 d1 2b bf
       -0.5388668 -0.8442353 0.31444564 -0.6711674
0001d0 b2 c0 a3 be a0 65 0e 3e 58 2d 44 be 06 9a d7 3e
       -0.31982952 0.13905954 -0.19157922 0.42109698
0001e0 9a 80 0b bf 33 eb 63 bf 94 2e d3 be 58 49 05 bf
       -0.54493105 -0.8903076 -0.41246474 -0.5206504
0001f0 91 2b 3f bf 2e ce 1b 3e 3b 0f 80 3f 04 74 32 3e
       -0.7467585 0.1521537 1.0004648 0.17427069
000200 05 62 32 be 51 5b 54 bf d6 0d 4f 3d 43 b5 0c bf
       -0.17420204 -0.8295184 0.050550304 -0.54964083
000210 38 97 2b be a1 f5 8e bf 9a a4 8d bd 19 a3 3e bf
       -0.16756904 -1.116871 -0.06916161 -0.7446762
000220 58 1f ac be 5f 6d f6 be 6d f3 06 bf 10 d8 af be
       -0.33617663 -0.4813032 -0.5271519 -0.3434453
000230 c0 75 53 bf d1 e7 ef be a8 dc 53 be 58 58 14 3f
       -0.8260155 -0.4685655 -0.20689642 0.579473
000240 b4 aa fa bb 27 c8 27 bf 26 c2 21 bf 06 0d be be
       -0.007649744 -0.65539783 -0.6318687 -0.3711931
000250 1c 90 c4 be c6 50 a9 be d9 7e 43 be 72 7b 17 bf
       -0.38391197 -0.33069438 -0.19091357 -0.5917274
000260 29 43 94 bf 85 ee c0 bf c5 cf ec be 53 0f e8 be
       -1.1582996 -1.507279 -0.46252266 -0.4532419
000270 00 a0 89 bf 80 2c f7 3b 63 b5 70 be bd cc 8d be
       -1.0751953 0.0075431466 -0.23506694 -0.27695265
000280 8f 9d 04 3f ae 30 9e 3e cf 9a 8b bf 43 4e 33 bf
       0.51802915 0.30896515 -1.0906619 -0.7004129
000290 6d a0 27 3e a4 ae e7 be d9 75 e9 be 74 0e 0d bf
       0.16369791 -0.45250428 -0.45597723 -0.5510018
0002a0 f9 39 24 3e 68 d0 16 bf 16 12 e5 3e 3f 12 5d bf
       0.1603774 -0.5891175 0.4474036 -0.86355966
0002b0 04 5d d1 be be 6c c5 be d5 51 b1 be 42 a1 90 bf
       -0.40891278 -0.38559526 -0.34632745 -1.1299212
0002c0 b3 56 8b 3d 3a 0b 74 bf 88 e0 af bf 02 ed 38 3e
       0.06803646 -0.9532963 -1.3740396 0.18059161
0002d0 66 bf 1f bf 7f d2 fd 3e 0b 33 ac be c4 21 5e be
       -0.62401426 0.49574658 -0.33632693 -0.21692568
0002e0 7a 8e e6 be fc df a7 bf d1 87 28 bf b9 0e fe 3e
       -0.45030576 -1.311523 -0.6583224 0.49620607
0002f0 2e 0e a0 bd f8 06 05 3d 1e d7 8d 3c 62 1a a6 bf
       -0.078152046 0.03247735 0.01731449 -1.2976801
000300 21 9d 02 3e 56 11 b3 be 76 6e 98 be 10 32 61 3f
       0.12755252 -0.34974164 -0.29771775 0.87967014
000310 7a 6d f3 be 75 70 80 bf 4b 6c e9 be 19 37 86 be
       -0.4754446 -1.0034319 -0.45590433 -0.2621391
000320 34 12 8a 3d c6 78 da be db 7f 5c be dc e9 aa bf
       0.06741753 -0.42670268 -0.21533148 -1.3352618
000330 ee ad 2d 3f 59 f1 40 3e 52 54 39 bf 8b 2c a5 3d
       0.6784352 0.18842067 -0.7239429 0.080651365
000340 00 5f 6a 39 92 aa 15 3e cd a8 a5 3d 60 70 c4 bd
       0.00022351369 0.14615849 0.08088837 -0.09591746
000350 b0 b6 c9 be 95 68 11 bf 72 3b 61 bf 17 6a 57 3e
       -0.39397192 -0.56800205 -0.8798133 0.21036564
000360 b2 50 0a 3f d0 2c 28 bf 33 29 d3 bd 3c 00 5f be
       0.5402938 -0.6569338 -0.103105925 -0.21777433
000370 5c 1c 92 be 38 3b 48 bf d6 fa 53 bf 0b 59 ba 3e
       -0.2853726 -0.7821536 -0.8280462 0.3639606
000380 74 48 3d be bd d1 21 bf b6 7a e7 3e ef 81 30 bf
       -0.1848467 -0.6321066 0.4521081 -0.6894826
000390 e7 02 51 bf 82 84 ad be ca 02 60 bf 72 dc c3 be
       -0.81645054 -0.33890158 -0.87504256 -0.38254124
0003a0 f5 eb 7f bf a9 88 61 bf 76 9e 0e 3e c7 56 32 bf
       -0.99969417 -0.8809915 0.13927636 -0.6966366
0003b0 a8 32 b7 be 09 3a 88 be 8b 86 de bd 20 78 9a bf
       -0.35780835 -0.26606777 -0.10865506 -1.2067909
0003c0 93 19 c7 bd 70 b7 79 be fb 34 af bd 8e 40 c5 3d
       -0.09721675 -0.24386382 -0.08555027 0.096314535
0003d0 8c 87 0b bf 30 53 02 be e6 36 72 3e 1e 14 e6 bc
       -0.54503703 -0.12727046 0.23653755 -0.028085764
0003e0 ac e0 14 be 4e 13 61 3d 20 70 38 3f 79 a2 13 be
       -0.1453883 0.05495005 0.7204609 -0.14417447
0003f0 9b c3 59 3e e5 03 44 be c2 83 a7 be 06 e0 99 3d
       0.21266024 -0.1914211 -0.3271771 0.07513432

sequential/model_9/dense_9/MatMul i1 [6, 320] scale=0.002051868 zero_point=0
000000 02 b1 17 aa c1 b7 07 3d 21 e1 e4 cc 22 41 de e0
       0.004103736 -0.16209757 0.047192965 -0.17646065 -0.12926768 -0.14978637 0.014363077 0.12516394 0.067711644 -0.06360791 -0.057452306 -0.106697135 0.06976351 0.13337143 -0.06976351 -0.06565978
000010 3a b8 ba 31 3b 10 f8 d2 e7 14 f8 00 34 f4 1b 0c
       0.11900835 -0.1477345 -0.14363076 0.10054153 0.121060215 0.03282989 -0.016414944 -0.09438593 -0.0512967 0.04103736 -0.016414944 0.0 0.106697135 -0.024622416 0.055400435 0.024622416
000020 06 cf 23 b5 d4 1f a8 04 f5 06 0d 19 e3 1b 16 31
       0.012311208 -0.10054153 0.07181538 -0.1538901 -0.090282194 0.06360791 -0.18056439 0.008207472 -0.022570549 0.012311208 0.026674284 0.0512967 -0.059504174 0.055400435 0.045141097 0.10054153
000030 ed 33 47 40 1f fa 12 17 f5 de 2c 07 04 16 09 cd
       -0.03898549 0.10464527 0.14568263 0.13131955 0.06360791 -0.012311208 0.036933623 0.047192965 -0.022570549 -0.06976351 0.090282194 0.014363077 0.008207472 0.045141097 0.018466812 -0.10464527
000040 da b3 27 2d ce fb da da ca d9 3e cb 22 ce 2b 0f
       -0.07797098 -0.15799384 0.08002285 0.09233406 -0.1025934 -0.01025934 -0.07797098 -0.07797098 -0.11080087 -0.08002285 0.12721582 -0.108749 0.06976351 -0.1025934 0.08823033 0.03077802
000050 2c ff 35 bf 02 bb 2b 1b 0a cf 13 bc c2 ce df 29
       0.090282194 -0.002051868 0.108749 -0.13337143 0.004103736 -0.1415789 0.08823033 0.055400435 0.02051868 -0.10054153 0.03898549 -0.13952702 -0.12721582 -0.1025934 -0.067711644 0.08412659
000060 3a 0f 1d 12 c0 c0 07 07 d5 2a 0e b9 b2 30 f4 c1
       0.11900835 0.03077802 0.059504174 0.036933623 -0.13131955 -0.13131955 0.014363077 0.014363077 -0.08823033 0.08617846 0.028726153 -0.14568263 -0.1600457 0.098489664 -0.024622416 -0.12926768
000070 1c d6 ec de cb d3 ce b8 31 f8 3f 1c 13 15 d5 3e
       0.057452306 -0.08617846 -0.04103736 -0.06976351 -0.108749 -0.09233406 -0.1025934 -0.1477345 0.10054153 -0.016414944 0.12926768 0.057452306 0.03898549 0.04308923 -0.08823033 0.12721582
000080 fc 03 49 fa c4 c1 c3 00 2d 2e 3e d4 bf f9 31 38
       -0.008207472 0.006155604 0.14978637 -0.012311208 -0.12311208 -0.12926768 -0.12516394 0.0 0.09233406 0.09438593 0.12721582 -0.090282194 -0.13337143 -0.014363077 0.10054153 0.11490461
000090 37 c6 cc cc fb 16 ab f1 2b 42 1f bc d4 b0 28 e7
       0.11285274 -0.11900835 -0.106697135 -0.106697135 -0.01025934 0.045141097 -0.17440878 -0.03077802 0.08823033 0.13542329 0.06360791 -0.13952702 -0.090282194 -0.16414943 0.08207472 -0.0512967
0000a0 b2 e0 a2 00 0c c4 bf 2e d3 e8 2d fe b7 cc c8 d0
       -0.1600457 -0.06565978 -0.1928756 0.0 0.024622416 -0.12311208 -0.13337143 0.09438593 -0.09233406 -0.049244832 0.09233406 -0.004103736 -0.14978637 -0.106697135 -0.11490461 -0.098489664
0000b0 c8 29 fa 32 b7 bc da 02 0c 02 1d 28 32 ca 36 02
       -0.11490461 0.08412659 -0.012311208 0.1025934 -0.14978637 -0.13952702 -0.07797098 0.004103736 0.024622416 0.004103736 0.059504174 0.08207472 0.1025934 -0.11080087 0.11080087 0.004103736
0000c0 cf e6 dd c9 24 e9 fd 11 f5 f6 fa d3 d5 c0 36 10
       -0.10054153 -0.053348567 -0.07181538 -0.11285274 0.07386725 -0.047192965 -0.006155604 0.034881756 -0.022570549 -0.02051868 -0.012311208 -0.09233406 -0.08823033 -0.13131955 0.11080087 0.03282989
0000d0 ed 28 ec b2 c7 e7 28 17 c3 37 25 cd cc 3f 19 e7
       -0.03898549 0.08207472 -0.04103736 -0.1600457 -0.11695648 -0.0512967 0.08207472 0.047192965 -0.12516394 0.11285274 0.075919114 -0.10464527 -0.106697135 0.12926768 0.0512967 -0.0512967
0000e0 1b cf d6 02 fd c5 bc 1f 03 f7 df ba 39 04 dd 0a
       0.055400435 -0.10054153 -0.08617846 0.004103736 -0.006155604 -0.121060215 -0.13952702 0.06360791 0.006155604 -0.018466812 -0.067711644 -0.14363076 0.11695648 0.008207472 -0.07181538 0.02051868
0000f0 44 d5 30 13 d6 12 b1 f6 d9 43 2b f9 bd 35 e1 38
       0.13952702 -0.08823033 0.098489664 0.03898549 -0.08617846 0.036933623 -0.16209757 -0.02051868 -0.08002285 0.13747516 0.08823033 -0.014363077 -0.13747516 0.108749 -0.06360791 0.11490461

sequential/model_9/conv2d_72/Conv2D f4 [32, 11, 1, 1]
000000 2d 6b 80 3d a6 2f 86 3e 60 58 12 3d f3 a9 05 be
       0.06270442 0.26208228 0.035728812 -0.13053112
000010 b9 2b 96 be a8 7c b2 be 82 68 8c be 80 3f b3 3e
       -0.29330233 -0.3486073 -0.27423483 0.35009384
000020 d0 87 44 3e a3 ef f6 3e c3 20 e1 be cb e4 05 3e
       0.19192433 0.48229703 -0.43970308 0.13075559
000030 6e a1 34 3e 14 c1 bc 3d 96 7b 1d 3e d3 0f 92 3c
       0.17639706 0.09216514 0.15379176 0.017829811
000040 46 3f e9 bd 40 9c 48 3e 4c 65 a9 be 2d 62 c9 be
       -0.113890216 0.19590855 -0.33085096 -0.39332715
000050 26 35 6b 3e 4f e9 42 3e 2d 5d 28 3e 81 0c 03 3e
       0.22969493 0.19034313 0.16441794 0.12797739
000060 e2 49 c3 3d 68 76 e5 bd de a9 00 bd 24 07 3f 3c
       0.095355764 -0.11204225 -0.031411998 0.011659417
000070 2b f4 20 bd af 1c 6d 3b 55 9d 37 3d 5b 6f 98 3d
       -0.039295357 0.0036180427 0.044827778 0.07443114
000080 12 f4 10 3e e1 0e 2d be 32 d6 d7 be f3 26 45 3f
       0.14155605 -0.16900207 -0.42155606 0.77012557
000090 71 fb 2e bc ec eb 7e be 7b 61 0b 3e 01 22 e3 be
       -0.0106800655 -0.24894685 0.13611405 -0.4436188
0000a0 f6 ce f1 3e ee bc 66 bf 4d f9 1e 3e e5 70 32 3f
       0.4722821 -0.90132034 0.15524788 0.69703513
0000b0 ff 4e 15 3e 17 55 90 be b3 fd 8c 3e 8a da 73 3d
       0.14580916 -0.28189918 0.27537307 0.059534587
0000c0 b3 a8 67 3e 86 f6 ab 3e ca c9 58 be 40 0f bc be
       0.22622947 0.3358652 -0.21170726 -0.36730385
0000d0 02 f7 6b 3e d4 93 83 be e2 ab 5b 3e 4a bd 29 be
       0.23043445 -0.2569872 0.21452287 -0.16576114
0000e0 e9 f5 27 3e 02 c7 29 bd fb a4 48 be d8 4d 09 be
       0.16402401 -0.041449554 -0.19594185 -0.13408601
0000f0 2a 90 2c bc a4 11 1b 3e a6 d9 0c be e4 28 a6 bd
       -0.010532418 0.15143448 -0.13754901 -0.08113268
000100 19 42 81 bc a6 e6 33 bb cb 56 29 3d df 91 af 3d
       -0.015778588 -0.002745071 0.041342538 0.085727446
000110 3d 5c f5 3d 6e 91 15 bd cc 14 21 3e c7 d3 c5 3d
       0.11980484 -0.036515646 0.1573059 0.09659534
000120 db 81 50 bd 51 ba 89 bc 15 9e 3f bd 66 d7 b7 3d
       -0.05090509 -0.016812475 -0.04678162 0.08976631
000130 2b f3 01 3d b2 97 ed 3e 19 97 d7 bd 12 4c 2d 3e
       0.031726044 0.46404797 -0.105268665 0.1692355
000140 7f a4 c7 be 0e 9e 21 be ae fe c9 bd bf 91 9d 3d
       -0.38992688 -0.1578295 -0.098630294 0.076938145
000150 f8 2b 06 bf b3 4e ff 3c 8a a5 96 3e 0d 44 99 3e
       -0.5241084 0.031165456 0.2942317 0.2993473
000160 6f fc 0b be 45 02 59 be 45 c5 41 3e 3a d5 b6 3b
       -0.13670515 -0.21192272 0.18922909 0.005579618
000170 8c 6c 9e 3d f2 e7 dc bd 1f 0f 17 bd f8 83 b0 3d
       0.077355474 -0.107864276 -0.036879655 0.08618921
000180 21 13 2d be bd 25 90 3d bc 5b 80 be 60 92 dd 3d
       -0.16901828 0.07038448 -0.25069988 0.108189344
000190 70 a7 cd bd 7f 26 e9 3d c8 6f e3 3d 12 c3 e0 bd
       -0.10041702 0.11384296 0.11105305 -0.10974707
0001a0 e2 17 08 be c6 20 17 3e 7d 46 de 3d bb 6b 26 3e
       -0.1329036 0.14758596 0.10853288 0.16252033
0001b0 be 74 03 bd ed e2 c6 3d e2 8a 9f 3d d9 5b 89 3e
       -0.032093756 0.097112514 0.07790162 0.26827887
0001c0 5f f3 5e be c7 2b 4d bd 10 b2 c4 3c d3 fc 4d be
       -0.21772526 -0.050090577 0.024010688 -0.20115976
0001d0 57 52 d1 bd 1d 3b 9a be fc c4 40 3e 62 64 28 be
       -0.10220783 -0.30123225 0.18825144 -0.16444543
0001e0 40 ec de 3d f7 ee 88 3e 43 74 4e bf 5c 57 96 3e
       0.10884905 0.26744816 -0.8064615 0.29363525
0001f0 3a 70 40 3f 04 de 31 bf f2 55 1f 3f 69 e6 d0 be
       0.75171244 -0.69479394 0.6224052 -0.4080079
000200 ca ee 67 bf 62 70 88 3f 54 b9 f8 be 9f c1 08 3e
       -0.9059874 1.0659297 -0.48578894 0.1335511
000210 e6 46 7c be 75 f1 8f 3e 61 01 28 be 14 a3 9c 3e
       -0.2463642 0.28113905 -0.16406776 0.3059317
000220 34 53 82 3e e4 22 19 3e 41 c6 10 be e2 52 bb 3e
       0.25454104 0.14954716 -0.14138128 0.36586672
000230 f6 78 b4 be e1 ba 89 be b8 e0 4c be 14 e5 6e be
       -0.35248536 -0.2690039 -0.20007598 -0.23329574
000240 71 cb c8 3d 7a 7b fb 3e 7b 6b f9 be 04 94 00 bf
       0.09804428 0.49117643 -0.48714814 -0.50225854
000250 69 57 d2 bd 0d c8 a0 3e 49 40 e0 3e 9d 63 19 be
       -0.102705784 0.31402627 0.43799046 -0.14979406
000260 6d 60 9c 3e 55 4a b8 be bd 94 26 be 82 e2 d2 bc
       0.30542317 -0.3599421 -0.16267677 -0.025742773
000270 41 03 4b 3e 6c e1 3f be 43 65 0f be c9 8a 99 bd
       0.1982546 -0.18738335 -0.14003472 -0.07497174
000280 1f 89 ba b9 3d ac be bd 3a 0f 39 be 78 9f d3 3d
       -0.00035578848 -0.093101956 -0.18072215 0.103331506
000290 e7 9f 09 3e c1 fa 2e be 16 7c d0 3d 8e 61 55 3c
       0.13439904 -0.17087843 0.101799175 0.013023747
0002a0 6c 9c ef bb 3a ec c0 bd 1a 6a a0 3e 6c 06 ac bd
       -0.007312348 -0.09420057 0.3133095 -0.083996624
0002b0 7a 80 10 3c a5 32 e7 bd dd c9 15 be 4a 29 7e be
       0.008819694 -0.112889566 -0.14627786 -0.24820438
0002c0 f9 c0 15 be f8 25 ba be 56 82 52 bd 75 0c 97 3e
       -0.14624394 -0.36357093 -0.05139383 0.2950169
0002d0 43 96 28 be a4 0f 0e 3d 64 67 a6 3e b1 93 9a 3c
       -0.1646357 0.034682885 0.32500756 0.018869253
0002e0 de be 8e 3e 9e b5 86 be c8 45 9b be 67 fd 20 3e
       0.27879995 -0.26310438 -0.30326676 0.15721665
0002f0 98 80 6c bb 7d 87 40 3e cc 20 83 3b 80 e5 96 be
       -0.003608739 0.18801685 0.0040017124 -0.2947197
000300 07 59 06 3e f4 7a a3 3e f2 e6 9b be 60 2b 8f bd
       0.13119899 0.31929743 -0.30449635 -0.06990695
000310 3b 21 8c 3d bf d3 86 3e f0 ba 77 be a8 14 e5 bd
       0.06842276 0.26333424 -0.24192405 -0.111855805
000320 7a 4b 07 be 07 bb f5 bd a2 e5 69 be fd ca 41 3e
       -0.13212386 -0.11998563 -0.22841504 0.1892509
000330 01 3a 8b 3e 96 6c 03 3e f3 21 80 be 4d 04 1c 3e
       0.2719269 0.12834391 -0.250259 0.15236016
000340 09 d3 9a 3e 25 46 05 3e 92 5b 8b 3e e8 58 21 3e
       0.30239132 0.1301504 0.272183 0.15756571
000350 02 b2 db bd 23 8e 17 3e bd 3b 40 be 77 b7 3f be
       -0.10727312 0.14800315 -0.18772788 -0.1872233
000360 3d e5 62 be 09 1a 29 be a3 a5 17 be 2d e9 4c 3e
       -0.2215776 -0.16513838 -0.14809279 0.20010825
000370 b5 af 24 bd 52 15 8c be cf 3f 42 3e fe cb c7 3e
       -0.04020663 -0.27360016 0.18969654 0.3902282
000380 b5 9e b2 be 83 89 03 be 88 58 ea 3e 7a b2 89 3d
       -0.3488671 -0.12845425 0.4577067 0.06723495
000390 85 54 bc be 38 e9 d8 be 02 a5 10 3e a1 ee 1d bd
       -0.36783233 -0.42365432 0.14125445 -0.038557652
0003a0 97 1b e9 bd e6 fc bf bc 78 1b 21 be da d9 9f 3c
       -0.113822155 -0.023436021 -0.15733135 0.01951306
0003b0 87 be 62 bc 61 0a da 3d cc 8f ef bd 5d 99 fd bd
       -0.013839371 0.10646511 -0.11697349 -0.12382767
0003c0 e8 d0 22 bd 9f df 94 3c 6b 52 23 3e 69 07 44 be
       -0.03975001 0.018173037 0.15949409 -0.19143452
0003d0 ed 2d 9b be 54 cc 85 3e df 6e 14 3e 56 d2 7f be
       -0.30308476 0.26132452 0.14495419 -0.2498258
0003e0 83 9c 50 bc ed f1 55 be 27 44 10 3e d6 b1 17 bd
       -0.012732628 -0.20893069 0.14088498 -0.037034832
0003f0 6d 80 23 be 16 ee e7 bc 56 a7 e9 3c 09 63 6a bd
       -0.1596696 -0.02831177 0.028522175 -0.057223354

sequential/model_9/conv2d_73/Conv2D f4 [32, 1, 9, 1]
000000 51 21 68 3e b7 4c 6f 3d 0c 6a 44 be 92 9e b6 bd
       0.22668959 0.05842277 -0.19181079 -0.08916964
000010 ef d7 5f be 88 7a ed 3d 67 b9 72 be e5 7f 15 bc
       -0.21859716 0.115956366 -0.23703538 -0.009124731
000020 a5 04 70 3d 59 58 05 bd bb 8b 96 3d 58 a5 96 3d
       0.05859818 -0.032554958 0.0735087 0.073557556
000030 29 5b bc 3c 04 4e 8a be 94 ae df be d4 67 35 bd
       0.022992687 -0.27012646 -0.4368788 -0.04428847
000040 23 f3 9a bd 42 4c 8c bd 06 9f 6f 3e 8c aa 0a 3e
       -0.07565906 -0.068504825 0.23400506 0.13541621
000050 b7 4a 05 be aa 1b 90 bd 19 7c 9c 3e c9 ab 6a 3e
       -0.13016783 -0.070365265 0.3056343 0.22917093
000060 64 26 4b be 53 cd 84 be cf 7e 0d 3e 31 d9 b6 3d
       -0.19838864 -0.259379 0.13817905 0.08928145
000070 60 4c 86 be 02 84 4f be da 56 2c be 1a c4 6a be
       -0.26230145 -0.202652 -0.16830006 -0.2292637
000080 e7 94 08 bb 74 9a 3b 3d 95 e4 f8 3c 7b 9a 19 bd
       -0.0020840706 0.045801595 0.030382434 -0.03750084
000090 d4 5f 95 be 7f 49 ce bd f4 80 a1 3d 20 20 5f 3e
       -0.29174674 -0.10072612 0.07885924 0.21789598
0000a0 43 86 63 3e 83 a5 ec 3d a9 07 17 be 27 92 8e be
       0.22219186 0.11555006 -0.14749016 -0.2784588
0000b0 02 ce af 3d 84 50 4e be c0 f2 70 3e 21 14 77 3d
       0.08584215 -0.20147902 0.23530102 0.06032193
0000c0 54 20 e8 3d 69 45 38 3e a9 41 87 3d fe c9 94 3d
       0.11334291 0.17995228 0.066043206 0.072650895
0000d0 df 7b b8 be b1 95 aa 3e e8 f1 51 be f3 ce 62 be
       -0.36032006 0.3331733 -0.20502436 -0.22149257
0000e0 8c 7b 0d be 43 2c 19 be 98 fd 5d be 62 fe e5 bd
       -0.1381666 -0.14958291 -0.2167877 -0.1123016
0000f0 09 1b e0 bd 2f 7d 5c bd 57 d6 3b be ca 80 69 be
       -0.109426565 -0.053830322 -0.18343483 -0.22803035
000100 b9 69 17 be b5 88 90 bc fe 5c 33 bd 9d 3f 19 3b
       -0.14786424 -0.017643312 -0.043789856 0.0023383864
000110 7a 64 55 3e 23 aa 46 be 7a 37 3f 3e 25 f3 21 be
       0.2083911 -0.1940084 0.18673506 -0.15815409
000120 64 5f b0 bc be 62 b7 3d 5b 6b e7 bd c5 6c 3f 3e
       -0.02152986 0.089543805 -0.11299773 0.18693836
000130 b6 62 ae 3d 8c d6 d5 bb 50 06 67 be 34 9b 5a 3e
       0.08514921 -0.00652582 -0.22561002 0.21348268
000140 15 c6 73 be 87 18 02 3e ec db cb 3d 55 7e 86 be
       -0.23806031 0.12704669 0.09954056 -0.2626826
000150 6d 39 8e bd 89 dc a9 3e dc 8a 84 be 57 1f 16 bd
       -0.06944547 0.33176067 -0.2588719 -0.03665098
000160 b4 70 fe 3d 6b a2 9b be 67 09 0e be b8 cc 1e be
       0.1242384 -0.30397353 -0.13870774 -0.15507782
000170 97 6a 3a be 0a 79 d4 bd db ef 06 be 9e 05 a9 be
       -0.18204723 -0.10374649 -0.13177435 -0.33012098
000180 85 46 99 3e b5 cb 63 3e f9 d3 e2 bd 36 7f 74 3e
       0.29936615 0.22245677 -0.11075587 0.23876652
000190 48 e5 42 be a6 35 c6 bd 83 ff 3e 3e d6 7d 53 be
       -0.19032776 -0.096782014 0.18652157 -0.20653471
0001a0 9a dc a4 bd 5e 30 f8 3d 80 9b 4b 3d 67 ff 98 3e
       -0.08049889 0.121186 0.049708843 0.29882357
0001b0 36 65 64 be 7e ba 7c be bf 6c f3 bd 3e ca d8 bc
       -0.22304234 -0.24680516 -0.11885976 -0.026463624
0001c0 9d ce 3f 3e b2 9b d7 bd ae 32 98 be 9a 67 9b 3e
       0.1873116 -0.105277434 -0.29726166 0.3035248
0001d0 13 d0 14 be b5 62 42 3e 18 82 63 3e 70 29 2b 3e
       -0.14532499 0.18982966 0.22217596 0.16715026
0001e0 84 83 bf bd 7a 2e 54 3e d6 c3 50 be 81 81 67 be
       -0.093512565 0.20720854 -0.20387205 -0.22607996
0001f0 23 2a e7 3d c0 6f 85 bd 41 c4 3f 3e f2 3a 82 3e
       0.11287334 -0.06515455 0.18727209 0.25435597
000200 ac 9e c4 bc ad 87 78 be c4 7a 1a bc 31 7f 88 bd
       -0.024001442 -0.24270506 -0.009428684 -0.06664885
000210 bc cc 43 be 06 00 86 be 27 f0 29 be 43 a7 34 be
       -0.19121069 -0.26171893 -0.16595517 -0.1764193
000220 25 65 22 3e 2f d0 ab 3d 71 38 1c 3e b3 16 90 bd
       0.15858896 0.08389317 0.15255906 -0.070355795
000230 1a 4c 4d 3e ef cc 6c 3e e9 38 61 3e 61 a9 23 3e
       0.20048562 0.23125051 0.21994366 0.15982582
000240 9b 42 70 be 54 8f 14 3e f0 82 c9 3a f3 48 a3 bc
       -0.23462908 0.145078 0.0015374105 -0.019932246
000250 ae 8b 58 be ae ee 94 be e7 32 87 3e 9d af f6 bd
       -0.21147034 -0.29088348 0.26406023 -0.12045214
000260 16 6c 40 3e fe 3f 9f be cf 8f 95 bd a3 b8 f2 3d
       0.18791232 -0.3110351 -0.0730282 0.11851623
000270 7e f3 18 be 74 f0 a6 3d 05 fa 7e 3e 7b 68 1e 3e
       -0.14936635 0.081513315 0.24900062 0.15469544
000280 8c e2 99 be f4 0d 55 3e 22 ee 34 be 20 ec 8c bd
       -0.30055654 0.20806104 -0.17668965 -0.06880975
000290 18 33 26 be 5e 30 63 be 62 06 37 3e e5 0b 3e be
       -0.16230428 -0.2218642 0.17873529 -0.18559225
0002a0 68 dc 69 3b 17 35 f8 bd 98 1e 47 3d 8d ed 8c 3c
       0.003568435 -0.12119501 0.04861316 0.017203117
0002b0 4a 73 75 3e 71 75 84 3e d1 07 3c 3d 8c 75 22 3e
       0.2396976 0.2587085 0.04590589 0.15865153
0002c0 a4 2c 33 3e 65 66 94 bd 13 41 eb 3d 0a 21 e0 3e
       0.17497498 -0.07246093 0.11487021 0.43775207
0002d0 b5 80 9b 3c 71 85 11 be bb 33 d2 3d 62 c4 4e 3e
       0.01898227 -0.1421106 0.10263773 0.20192102
0002e0 f3 d6 5d 3d 41 e2 1a 3e ca b7 8a 3e da ec a7 be
       0.05416007 0.15125372 0.27093345 -0.3279789
0002f0 00 6b 9c 3e 19 10 fd bd 77 54 3b be d9 39 0a 3d
       0.30550385 -0.12356586 -0.1829394 0.033746574
000300 59 b1 e6 bd cc 97 3b 3e c2 e8 5f be 06 2e 80 3e
       -0.11264295 0.18319625 -0.21866134 0.25035113
000310 38 43 47 3e 91 55 e4 bd fa 28 25 3e 6b cf c7 3d
       0.19459236 -0.11149133 0.16128913 0.09756359
000320 c8 3f 6c be 2f a3 5d be 8f 89 68 be e0 43 a4 bd
       -0.23071206 -0.21644281 -0.22708724 -0.08020759
000330 e5 ec 86 3e f6 4e 89 3e 6d 8f c9 bd a5 f2 1e be
       0.2635261 0.26818055 -0.098418094 -0.15522249
000340 68 3b 5d be e1 39 9c bd ea e0 0b 3d 8a ab d4 bd
       -0.21604693 -0.07628227 0.03415004 -0.10384281
000350 9b 4b 87 3e 45 1a 1d 3e 94 67 ea 3d 0a d2 81 be
       0.2642487 0.15342052 0.11445537 -0.2535556
000360 3b 09 77 be d9 c7 33 3e f0 a4 aa bd 4e 66 c2 3c
       -0.24124615 0.17556705 -0.083322406 0.023730423
000370 66 3a 3d 3e 45 b0 a4 bd ac c8 54 be 32 d8 19 3e
       0.18479308 -0.08041433 -0.20779675 0.15023878
000380 2a 0b 39 be dc f0 7e 3e a2 8c 70 3e 98 28 24 be
       -0.18070665 0.24896568 0.23491147 -0.1603111
000390 cb 84 69 3c 1c df 34 3e 91 fc 87 3e 35 2d 7b 3e
       0.014252852 0.17663234 0.2655988 0.24528964
0003a0 12 57 e2 bd fe 47 18 be 89 fb b5 be 44 86 19 be
       -0.110517636 -0.14871213 -0.3554347 -0.14992625
0003b0 66 c0 7a bd e3 e2 c7 bd 3a 40 47 bb 02 c1 31 bd
       -0.06121864 -0.09760072 -0.0030403272 -0.043396957
0003c0 1a 5b 60 bc 19 d4 b9 be df eb 14 3e 1d 0c cf bd
       -0.013693595 -0.3629463 0.14543103 -0.10109732
0003d0 92 ac 4f 3d b9 6a 4b be 4d 5a 08 3e 24 01 4a 3e
       0.050701685 -0.1986493 0.13315697 0.19726998
0003e0 63 9f de 3d 6a ea 98 3e 55 89 73 3e 13 7f 14 be
       0.10870244 0.29866344 0.23782857 -0.145016
0003f0 1a 5f 76 3c 30 b7 6c bd e7 8d 07 be 4d 33 89 3e
       0.015037322 -0.05779189 -0.13237725 0.26796952

sequential/model_9/conv2d_74/Conv2D f4 [32, 3, 3, 1]
000000 0d a6 91 bd 43 7f 8e be fd 9f bb be c0 58 f3 be
       -0.0711175 -0.27831468 -0.366455 -0.47528648
000010 d4 3a da be bf 4c c8 bc 36 59 90 3e 40 39 12 3f
       -0.42623007 -0.024450658 0.28193063 0.57118607
000020 1a 12 b0 3e cd 73 56 be 27 ad 8e bd d8 73 82 be
       0.3438881 -0.20942612 -0.0696662 -0.25479007
000030 c1 34 e2 bb b2 90 4b 3e e4 64 f6 3c 00 1f 43 be
       -0.0069032614 0.19879416 0.030077405 -0.19054794
000040 2a 8d ab bd f9 3b 14 3e 55 31 b6 3e f4 19 6d 3f
       -0.08376534 0.14476003 0.35584512 0.92617726
000050 b5 75 83 be c6 39 eb bd ab 38 ac be 45 bc 73 3e
       -0.2567574 -0.11485629 -0.33636984 0.23802288
000060 9c 37 26 be 4a 0e 09 bf 84 ba 30 be 52 a7 76 bd
       -0.16232151 -0.5353743 -0.1725865 -0.060218163
000070 07 8e fb bb 9d 36 ad 3e 14 18 60 be 78 ce 4c 3e
       -0.007676843 0.3383073 -0.21884185 0.20000637
000080 3e b1 a2 3e 42 86 c5 3d b0 f8 cc 3d 21 5d 83 be
       0.3177585 0.09644748 0.10008371 -0.2565699
000090 aa ae 21 be 42 e7 cf bd fc 0c 0b be 1a 1f 70 be
       -0.15789285 -0.10151531 -0.13579172 -0.23449364
0000a0 61 05 ea bd 1b 0b 42 3e 6b 05 91 bc ca a6 34 3e
       -0.11426807 0.18949549 -0.017702779 0.1764175
0000b0 74 15 15 be 60 4b c8 be 29 d8 90 bd 7c e9 fe 3d
       -0.14558965 -0.39120007 -0.07072479 0.12446877
0000c0 98 d0 48 3e 53 90 ab be de 9e 93 3e b6 13 b0 3e
       0.19610822 -0.33508548 0.28832144 0.34390038
0000d0 ff d1 d9 3d ce 5b b0 be 47 1c f9 bc fa 44 4f 3e
       0.10635757 -0.3444504 -0.030408992 0.20241156
0000e0 f8 5d 24 be 6f 19 8f bc ef 10 95 bb 48 0a 3f be
       -0.16051471 -0.017468182 -0.004549138 -0.18656266
0000f0 86 3c 22 3e dc aa a3 bc a0 62 0d be 32 b4 d9 bd
       0.158434 -0.019978933 -0.13807154 -0.10630073
000100 ee 8a 04 be f2 94 1e 3d 86 d3 00 be 43 c3 d5 bd
       -0.12943622 0.038716264 -0.1258069 -0.10437634
000110 9b 80 28 3e e6 37 c1 bd 72 8e d9 3c c9 74 3f 3e
       0.16455309 -0.0943449 0.026557181 0.18696894
000120 c6 3b b0 bd 86 5c 7e be ca b8 e1 3e f1 4c 1b 3d
       -0.08605151 -0.24839982 0.44086295 0.037915174
000130 4a fa a2 be b4 9c be be f5 de 31 be bf 71 55 3e
       -0.3183158 -0.3722893 -0.17370208 0.20844172
000140 02 f4 f7 bd 11 aa 5f bd 7f 51 26 be c9 11 2b 3e
       -0.12107088 -0.054605547 -0.16242026 0.16706003
000150 d2 93 80 bd 0b 00 b5 bd 15 2f b6 3c 09 88 31 be
       -0.062781945 -0.08837899 0.022239247 -0.1733705
000160 2e cb c9 bd 36 54 84 3c 81 23 cb 3e ff 96 2f 3f
       -0.098532066 0.016153436 0.39675525 0.68589777
000170 d0 f8 22 bf 83 47 25 be 7a 81 32 bf de fe 22 3f
       -0.6366091 -0.16140561 -0.69728816 0.63670146
000180 ea c3 86 be 36 69 03 bd a4 e3 c6 be 37 a3 b6 be
       -0.26321346 -0.03208276 -0.3884555 -0.35671398
000190 e5 a2 aa 3e a3 b5 f8 be c4 f0 10 be 85 76 d7 3e
       0.33327404 -0.48576078 -0.14154345 0.4208261
0001a0 c0 09 bc be 6e a8 ef 3e d5 06 2f bf 98 fc 62 3f
       -0.3672619 0.4680819 -0.683698 0.8866668
0001b0 88 60 42 bd a2 5c c8 bd ec 33 d3 be e4 3c 04 be
       -0.04745534 -0.09783293 -0.4125055 -0.12913853
0001c0 c6 6e a3 bd a7 0e 29 3e c2 73 66 be d2 89 40 3e
       -0.07980113 0.16509496 -0.22505096 0.18802574
0001d0 a2 bf ea 3e 9b 6a d1 3e 10 65 64 be 71 ac aa be
       0.4584933 0.40901646 -0.22304177 -0.33334687
0001e0 42 4a 3b be 96 77 17 3f 39 58 11 3f 00 d6 0c bf
       -0.18290046 0.5916685 0.5677524 -0.5501404
0001f0 03 6b e3 be 08 ff ef bd ae 23 82 bc 4c 2a b5 3b
       -0.4441758 -0.11718565 -0.015886154 0.005528724
000200 b3 d8 10 be 13 7f 0f 3e 31 5e 34 bd 5a 75 54 be
       -0.14145164 0.14013319 -0.04403514 -0.20747891
000210 a3 f6 4f 3e 5b 55 6a be fa b8 3a 3e ee 38 83 3e
       0.20308928 -0.22884123 0.18234625 0.2562937
000220 b4 e4 a6 3e 21 fc c7 bd 81 e4 16 be 69 21 fc 3d
       0.32596362 -0.09764887 -0.14735605 0.1231106
000230 9b 76 7d 3d e9 ab 65 be 41 ee 8b be 72 a1 96 be
       0.06188069 -0.2242886 -0.2733021 -0.29420048
000240 92 77 1f 3e 77 1f 3e be 67 00 b5 3d 8d 02 be 3d
       0.15572956 -0.1856669 0.08837967 0.0927783
000250 83 3e 58 be 36 c5 53 be 7c b7 0a be a5 10 6f 3c
       -0.21117596 -0.20680699 -0.13546556 0.014591371
000260 56 cb 3a 3e cc 6b 85 3d ed c6 5f be b0 71 5a 3d
       0.18241629 0.06514701 -0.21853228 0.053331077
000270 cd 9e 28 3e 19 83 22 be 16 bf 09 be c9 13 fd 3c
       0.16466828 -0.15870322 -0.134518 0.030893223
000280 bb f9 cb 3d cf a2 25 3e 55 0f 81 3e d8 c6 b9 3c
       0.09959742 0.16175388 0.2520701 0.022677824
000290 db 14 2e 3e e7 68 ae be 81 48 58 3e fb b9 02 3d
       0.17000143 -0.3406441 0.21121408 0.031915646
0002a0 e8 62 01 3e d4 00 21 be 10 b3 a7 3e 6c 87 a7 bd
       0.12635386 -0.15722972 0.327538 -0.081801265
0002b0 4e 6c c1 3d b7 d9 0f 3e f8 b8 df 3c b1 73 4d be
       0.094444856 0.14047895 0.02730988 -0.20063664
0002c0 1a e8 c7 3d fc 21 cc 3d 41 8b 61 3b dc 3f 7b 3e
       0.09761067 0.099674195 0.0034415277 0.24536079
0002d0 2d 2e 1d bd d0 1e 82 3e bc 15 54 be d4 90 2b 3f
       -0.038374115 0.25414133 -0.20711416 0.67017865
0002e0 3c e7 24 3e a0 06 b9 3e be b4 ad be f1 e8 eb be
       0.16103834 0.36137867 -0.33926958 -0.46076158
0002f0 10 cf da bc 1f 6d 81 3e 36 1c 59 3e b8 93 31 3e
       -0.026710063 0.25278565 0.21202168 0.17341506
000300 05 db 70 3e f4 29 6d be 54 2c d6 bd 82 a1 ae bd
       0.2352105 -0.23160535 -0.10457674 -0.08526899
000310 6b 9d 61 3e 2f 34 86 be 21 ea 77 3c c6 6e 01 bd
       0.22032706 -0.26211688 0.015131504 -0.031599782
000320 0b 7c 6f be 70 c2 1a 3e 0b 7b 01 be 16 a7 04 be
       -0.23387162 0.15113235 -0.12644593 -0.12954363
000330 05 b8 f2 bd f3 74 37 3e 62 30 3e be 5e 63 3a bc
       -0.11851505 0.17915706 -0.18573144 -0.01137623
000340 95 e8 a5 3d fe 31 4c 3d 34 8f 1d be 52 06 18 3e
       0.08101002 0.049852364 -0.15386659 0.14846161
000350 b4 48 c2 3d cc f7 fb bd d9 e8 89 3d 13 e8 36 3e
       0.09486523 -0.12303123 0.06733865 0.17861967
000360 e8 c4 d6 3d 71 31 01 be bb 2d 44 3e 11 da b6 bd
       0.10486776 -0.12616517 0.1915807 -0.089283116
000370 e4 9a 42 be 15 f6 17 be b6 c8 a8 3d 7f 3d d8 bd
       -0.19004399 -0.14839967 0.082414076 -0.105586044
000380 4b 2b 56 be 84 a1 e7 3e ac cb b9 be 13 ad 4c 3e
       -0.20914952 0.45240414 -0.36288202 0.19987898
000390 e8 96 bc be 82 2a 97 bd 22 06 c4 bd d9 a7 7b 3d
       -0.36833882 -0.073811546 -0.09571482 0.06143937
0003a0 00 14 e0 3d 07 b3 c8 be b4 e6 12 3f 47 25 1f bf
       0.10941315 -0.39199087 0.57383275 -0.62166256
0003b0 d4 97 05 be 06 7c 9f be cc 98 e8 3d 94 4a 0f bf
       -0.13046199 -0.3114931 0.11357269 -0.5597317
0003c0 98 6a c5 be ba fa db 3e e1 bc 16 3f e8 22 9f bd
       -0.38557887 0.42964727 0.58881956 -0.0777033
0003d0 ca 9d cf bd 67 87 ff bc 59 ac 3c 3d 79 45 f8 bd
       -0.10137518 -0.031192495 0.0460628 -0.12122626
0003e0 f9 d9 0a 3e a0 f7 0b 3e be e9 c1 bd f2 cb 0e 3e
       0.13559712 0.1366868 -0.09468411 0.13944986
0003f0 74 cf 76 3e ab 42 61 be 9f 71 e8 bd b4 cc ab bd
       0.24102575 -0.21998088 -0.113497965 -0.083886534

sequential/model_9/conv2d_75/Conv2D i1 [64, 3, 3, 96]
000000 46 08 ad 0e f4 06 f6 6c 49 cd 2e 25 e1 6c c0 13
       70 8 -83 14 -12 6 -10 108 73 -51 46 37 -31 108 -64 19
000010 4a 55 d1 26 1d be 0e 40 19 b8 cb cc 46 4f 49 40
       74 85 -47 38 29 -66 14 64 25 -72 -53 -52 70 79 73 64
000020 66 b3 c4 0b cc fb 21 54 c3 4c 3f 9e e7 bf db 06
       102 -77 -60 11 -52 -5 33 84 -61 76 63 -98 -25 -65 -37 6
000030 fc 3a 24 cd 71 96 ec f1 f9 19 0d d5 b8 22 d5 28
       -4 58 36 -51 113 -106 -20 -15 -7 25 13 -43 -72 34 -43 40
000040 65 ca fe d6 af 35 cb 1c 56 28 02 14 31 48 13 25
       101 -54 -2 -42 -81 53 -53 28 86 40 2 20 49 72 19 37
000050 48 fb cf 49 4a dc 8f da ec 43 b5 b4 dd d2 30 33
       72 -5 -49 73 74 -36 -113 -38 -20 67 -75 -76 -35 -46 48 51
000060 fb 21 1c c9 48 e3 fe 9f 40 ea 20 c1 ea f2 a8 36
       -5 33 28 -55 72 -29 -2 -97 64 -22 32 -63 -22 -14 -88 54
000070 31 da 16 b3 00 c9 0b b9 f8 2e fb f3 19 f7 e6 13
       49 -38 22 -77 0 -55 11 -71 -8 46 -5 -13 25 -9 -26 19
000080 1e f5 cc 0c 0d 3e 32 68 3c d0 47 34 39 ca 3e 13
       30 -11 -52 12 13 62 50 104 60 -48 71 52 57 -54 62 19
000090 64 c8 50 e4 b9 1d be 09 dd c1 d0 1c 0a bd c9 4d
       100 -56 80 -28 -71 29 -66 9 -35 -63 -48 28 10 -67 -55 77
0000a0 d1 15 4d 9c c0 57 4b 0c bf e8 fe b4 b7 2b d4 6b
       -47 21 77 -100 -64 87 75 12 -65 -24 -2 -76 -73 43 -44 107
0000b0 c5 4d d2 c5 33 20 dc 23 c7 3f f8 e5 5e 1b 25 c2
       -59 77 -46 -59 51 32 -36 35 -57 63 -8 -27 94 27 37 -62
0000c0 e1 4c b1 a6 58 52 dd de 27 05 52 20 1e ca be fb
       -31 76 -79 -90 88 82 -35 -34 39 5 82 32 30 -54 -66 -5
0000d0 bb 1e 45 ee d3 5e 44 af 41 0d cf fc bd 13 e7 f6
       -69 30 69 -18 -45 94 68 -81 65 13 -49 -4 -67 19 -25 -10
0000e0 cd 3e 4c f4 f4 cc b4 b8 fb 5f 03 49 a4 26 35 0a
       -51 62 76 -12 -12 -52 -76 -72 -5 95 3 73 -92 38 53 10
0000f0 43 c3 fe 4e bc dc eb 07 3f 37 dd db 1a b6 15 ea
       67 -61 -2 78 -68 -36 -21 7 63 55 -35 -37 26 -74 21 -22
